.dart_tool/chrome-device/Default/optimization_guide_prediction_model_downloads/0ae57beb-1751-4b59-8118-a201d99ef6df/model.tflite (tflite, 410364 bytes, 166 tensors)

context_transformer_0/bottleneck_input/norm/add f4 [32]
0	0x3cdf3344	0.027246125
1	0x3caa9e2a	0.020827372
2	0xbd86a38e	-0.06574164
3	0x3c83f006	0.016105663
4	0xbb7981b4	-0.0038071694
5	0xbce1ba38	-0.027554616
6	0xbcf1fa20	-0.029538214
7	0xbd88937e	-0.06668757
8	0xbdf06d54	-0.11739603
9	0xbd07a620	-0.033117414
10	0x3e1a1aa6	0.15049228
11	0x3cf9fa38	0.030514821
12	0xbc3d5a2f	-0.011557146
13	0x3d5fa816	0.05460366
14	0x3dd8e5af	0.10590684
15	0xbdf42cb4	-0.11922589
16	0xbd37badc	-0.044855937
17	0xbbcf4862	-0.0063257674
18	0x3db40618	0.08790225
19	0xbdc499f0	-0.09599674
20	0xbada6bf1	-0.0016664249
21	0x3dabdba6	0.08391504
22	0xbc5eaf4c	-0.013591599
23	0xbe435cdd	-0.19078393
24	0xbc86b7bf	-0.016445039
25	0x3e1d3c37	0.15355001
26	0xbd854052	-0.06506409
27	0x3d40513a	0.046952464
28	0xbd7f5a82	-0.062342174
29	0x3d2c92ee	0.04213231
30	0x3e1fe804	0.1561585
31	0x3d9d17cb	0.07670554

context_transformer_1/bottleneck_input/norm/add f4 [32]
0	0xbdb7cac2	-0.0897422
1	0x3d1e7e1a	0.03869448
2	0xbe17a0bc	-0.14807409
3	0xbbfdf2e8	-0.007749904
4	0x3d79b304	0.06096174
5	0xbe3e94ac	-0.18611401
6	0x3d52e34c	0.0514863
7	0x3ca30f32	0.019904707
8	0x3e34fb8c	0.17674083
9	0x3d7b6954	0.061379746
10	0x3c9b046f	0.018923013
11	0x3dca4f2c	0.09878382
12	0xbdb9e75e	-0.09077333
13	0x3ea4eae4	0.32210457
14	0xbd8dc97c	-0.06923196
15	0xbcdd528b	-0.027016899
16	0x3d8c7558	0.06858319
17	0xbd974f7e	-0.07388209
18	0xbd9bdfe5	-0.07611064
19	0xbd4e9eae	-0.050444297
20	0xbe8bc931	-0.27301934
21	0xbd0691c0	-0.03285384
22	0xbcb06251	-0.021531256
23	0x3c513b96	0.012770554
24	0x3d3da76a	0.046302237
25	0x3cf82bb9	0.030294286
26	0xbda8fb35	-0.08251039
27	0xbd5415ea	-0.05177871
28	0x3e240052	0.16015747
29	0xbccc51d7	-0.024941368
30	0x3d8e9eca	0.0696388
31	0x3dd84300	0.10559654

mention_transformer_0/bottleneck_input/norm/add f4 [32]
0	0xbe13d9b1	-0.14438511
1	0xbd364d60	-0.044507384
2	0x3d97c260	0.07410121
3	0x3e66add6	0.2252725
4	0x3db65698	0.08903235
5	0xbe30707f	-0.17230414
6	0x3df1c50a	0.1180516
7	0x3e840966	0.2578842
8	0x3e091229	0.13385834
9	0xbe684640	-0.22683048
10	0xbc256f88	-0.010097392
11	0xbe0e868a	-0.1391851
12	0xbccc7156	-0.024956387
13	0xbe47964a	-0.19490924
14	0x3e089049	0.1333629
15	0xbd422778	-0.04740092
16	0xbda8b494	-0.082375675
17	0x3d89a3ae	0.067206725
18	0x3d699492	0.057026453
19	0x3e1b8f58	0.151914
20	0xbd9c1df1	-0.07622898
21	0xbd3e9cea	-0.046536364
22	0x3c25c903	0.010118726
23	0x3e3c171f	0.18368195
24	0xbe9f870a	-0.31157714
25	0xbdc59302	-0.0964718
26	0xbda53040	-0.080658436
27	0xbe3dffa1	-0.18554546
28	0xbdcf73ae	-0.10129486
29	0x3c83977b	0.016063442
30	0xbcf444f4	-0.029818036
31	0xbdab165e	-0.083538756

mention_transformer_1/bottleneck_input/norm/add f4 [32]
0	0xbceb97f4	-0.02875898
1	0x3ed8fa1e	0.42378324
2	0x3e06a735	0.13149722
3	0xbe70abe5	-0.23503073
4	0xbe048d84	-0.12944609
5	0xbc912319	-0.017716931
6	0x3cfc6f4b	0.030814787
7	0x3e56bc56	0.20970282
8	0xbe182479	-0.14857663
9	0xbdf6d0c6	-0.12051539
10	0x3ebc364b	0.36760172
11	0x3df848be	0.121232495
12	0x3eb56254	0.3542658
13	0xbac88540	-0.0015298501
14	0x3d8c5b1e	0.06853317
15	0x3e156a9a	0.14591447
16	0xbe893526	-0.26798362
17	0xbdf4660c	-0.119335264
18	0xbec26d98	-0.37974238
19	0x3e0e4c19	0.13896216
20	0x3cdb6054	0.026779331
21	0xbe2b346f	-0.1671922
22	0xbe4c7021	-0.19964649
23	0x3d5dd838	0.05416128
24	0xbe1c6213	-0.15271787
25	0x3cd3f564	0.025873847
26	0xbe875678	-0.26433158
27	0xbd4bc057	-0.049743976
28	0xbdd37062	-0.1032417
29	0x3e9c881c	0.30572593
30	0x3d25bae4	0.040461436
31	0xbec01c32	-0.3752151

context_transformer_0/attention/value/add;context_transformer_0/attention/value/einsum/Einsum;context_transformer_0/attention/value/add/ReadVariableOp/resource f4 [32]
0	0x3cd8c2bc	0.026460044
1	0x3d5baf9f	0.053634282
2	0xbd72048a	-0.05908636
3	0x3da098b4	0.07841626
4	0xbd855407	-0.065101676
5	0xbd775452	-0.06038315
6	0xbcd60562	-0.026125614
7	0xbd6d4e93	-0.057936262
8	0x3d264d27	0.040600922
9	0xbd829269	-0.06375582
10	0x3d2e9d68	0.042630583
11	0xbdaa9f87	-0.08331209
12	0x3d8886da	0.06666346
13	0xbd578df5	-0.052625615
14	0x3d5fbcd7	0.05462345
15	0x3d5524b7	0.052036967
16	0xbd70a3e7	-0.05875006
17	0xbd5acf7b	-0.053420525
18	0x3d5de2a1	0.05417121
19	0x3d9cb2ad	0.07651267
20	0xbd8cbdb5	-0.06872121
21	0x3d3615fb	0.044454556
22	0xbd465401	-0.048419956
23	0xbd68fb61	-0.05688036
24	0x3d2bd8e4	0.04195489
25	0x3d1d08ea	0.03833858
26	0x3da1ee02	0.079067245
27	0xbd9438de	-0.07237409
28	0xbd7f6c24	-0.06235899
29	0x3d85d150	0.06534064
30	0xbdaf26e9	-0.085523434
31	0xbdadd7b0	-0.08488405

context_transformer_0/bottleneck_input/norm/mul f4 [32, 32]
0	0x3dc820f5	0.09771911
1	0x3af8b47d	0.0018974688
2	0xbe2fa4b2	-0.1715267
3	0x3eaaa6cf	0.3333039
4	0xbcfdbd8a	-0.030974168
5	0xbd09e699	-0.03366718
6	0x3ea718b5	0.32636037
7	0x3d93975f	0.07206606
8	0xbd16323f	-0.036669012
9	0x3d5c034f	0.053714093
10	0xbe377a4b	-0.17917745
11	0xbe71a424	-0.23597771
12	0xbe819bca	-0.2531417
13	0x3e8c6f8b	0.2742885
14	0xbdbb3fa3	-0.09142997
15	0xbe705741	-0.23470785
16	0xbc58ae13	-0.013225096
17	0xbe49f28d	-0.19721432
18	0xbe8427f5	-0.25811735
19	0x3c307854	0.010770876
20	0x3dba2691	0.09089387
21	0xbe16129b	-0.14655535
22	0xbcd50bf2	-0.026006673
23	0xbe619211	-0.22028376
24	0xbdba9391	-0.09110177
25	0x3e03bc54	0.1286481
26	0xbd8600e7	-0.06543141
27	0x3e0b4cce	0.13603517
28	0xbe1751fe	-0.14777371
29	0xbbef89de	-0.007310136
30	0xbe83ae77	-0.25719044
31	0xbd96d1a8	-0.073642075
32	0x3d49eff5	0.049301106
33	0xbe71470b	-0.23562257
34	0xbec8b1d2	-0.39198166
35	0x3ec7105a	0.38879663
36	0x3e8239c9	0.25434712
37	0xbe8c4bb2	-0.274015
38	0xbce82a30	-0.028340429
39	0xbf4236dc	-0.7586496
40	0xbdee2cea	-0.116296604
41	0x3e82919a	0.2550171
42	0x3dde6e9b	0.1086094
43	0x3eac4184	0.33643734
44	0x3ec1b77f	0.3783531
45	0x3eb3a9f0	0.3509059
46	0xbe2b1220	-0.16706133
47	0x3d8dbdd1	0.0692097
48	0xbeaeeff7	-0.34167454
49	0x3df19fdc	0.11798069
50	0x3c7810ef	0.015140756
51	0x3e287a08	0.16452801
52	0xbd1ab58e	-0.0377708
53	0xbe6feb1b	-0.2342953
54	0xbe028e78	-0.1274966
55	0x3cd00bc8	0.025396243
56	0xbdd0ebad	-0.102012016
57	0xbdfb31e9	-0.12265379
58	0x3da5daf8	0.080984056
59	0xbe45afb1	-0.19305302
60	0xbe7a2eb9	-0.24431886
61	0xbed881a6	-0.42286414
62	0x3ea1f444	0.31631672
63	0x3f2fd81b	0.68689126
64	0x3dd7cc00	0.10536957
65	0x3cc5df3d	0.0241543
66	0xbd655962	-0.055993445
67	0xbd93e001	-0.0722046
68	0xbd983d3f	-0.07433557
69	0x3d324535	0.043523032
70	0xbc884483	-0.016634231
71	0xbd1c4f95	-0.038161833
72	0xbc70fada	-0.014708245
73	0xbc42b1c9	-0.011883208
74	0xbe4f502c	-0.20245427
75	0xbc484491	-0.012223379
76	0xbe36b2dd	-0.17841668
77	0xbe1b7a4d	-0.15183373
78	0xbd9ea969	-0.07747156
79	0x3dbefa4c	0.09325084
80	0x3d229bb7	0.039699282
81	0x3ce2cc0b	0.027685186
82	0xbdae6b37	-0.08516543
83	0xbd7f4521	-0.062321786
84	0x3e587b49	0.2114078
85	0xbd98497e	-0.074358925
86	0xbe26b9e9	-0.16281857
87	0xbda1138b	-0.07865056
88	0xbcf68cc5	-0.030096421
89	0xbdc09507	-0.09403425
90	0xbe80732a	-0.25087863
91	0x3dc6fa8f	0.09715759
92	0x3deff55d	0.11716721
93	0x3e454414	0.19264251
94	0xbbcb252e	-0.0061995005
95	0xbea212a2	-0.3165484
96	0xbdc9c684	-0.09852317
97	0xbd8bb398	-0.06821364
98	0xbdae840b	-0.08521279
99	0xbef50fd8	-0.4786365
100	0xbe687902	-0.22702411
101	0x3e291d83	0.16515164
102	0x3e5bca59	0.21463908
103	0xbea0cbf5	-0.31405607
104	0xbe7a27d5	-0.24429257
105	0x3eb4df4d	0.35326615
106	0xbea2d2a7	-0.3180134
107	0xbd7be0ef	-0.06149381
108	0xbe99c00f	-0.30029342
109	0xbe9ab02d	-0.30212536
110	0x3eaae59c	0.33378303
111	0x3e5da66f	0.2164552
112	0x3ea55b6d	0.32296315
113	0xbb8b9a48	-0.004260335
114	0x3ed5e0b9	0.41773012
115	0xbe99975c	-0.2999829
116	0x3d4c13d1	0.049823586
117	0xbe973755	-0.29534402
118	0xbd357510	-0.044301093
119	0xbdd25dac	-0.10271773
120	0xbe43f345	-0.19135769
121	0xbc1a4896	-0.00941672
122	0x3d8893e8	0.06668836
123	0x3e7fcd06	0.24980554
124	0xbe92ee6f	-0.28697535
125	0xbdd84d36	-0.10561602
126	0xbe570b85	-0.21000488
127	0xbd94f7c9	-0.07273824
128	0x3e2b5a0d	0.1673357
129	0xbe0e9742	-0.13924888
130	0x3e9719ad	0.29511777
131	0xbe952f89	-0.2913783
132	0xbe8fbf07	-0.2807543
133	0x3e84ab0e	0.25911754
134	0xbdc10478	-0.094246805
135	0x3d95086f	0.07276999
136	0xbdb16019	-0.08660907
137	0x3d8286ff	0.06373405
138	0xbeb572b8	-0.35439086
139	0xbc82f9ae	-0.015988197
140	0xbe606d93	-0.21916799
141	0xbe95262f	-0.29130694
142	0x3e14e629	0.14540924
143	0xbe81e139	-0.25367144
144	0xbdaf85c4	-0.08570436
145	0x3dc27bde	0.09496282
146	0xbdfac379	-0.12244315
147	0xbdfd223a	-0.12360044
148	0x3cd89081	0.026436092
149	0xbc95cfb0	-0.01828751
150	0xbdeb824e	-0.11499463
151	0x3d63d291	0.055620734
152	0x3d788378	0.060672253
153	0x3d4377d7	0.04772171
154	0xbcae3b8c	-0.021268629
155	0x3bc933d3	0.006140211
156	0x3e70f4f7	0.23530947
157	0x3ece9e8a	0.4035533
158	0x3ba40084	0.0050049443
159	0xbf082792	-0.5318538
160	0xbd14bcdb	-0.03631292
161	0xbdbe6b1f	-0.092977755
162	0x3de5b93b	0.112169705
163	0xbdf107e2	-0.11769082
164	0xbdea180b	-0.11430367
165	0x3e4ebef1	0.20190026
166	0x3de32745	0.110914744
167	0x3d2e501e	0.042556874
168	0xbdb7be3c	-0.08971831
169	0x3e166faf	0.14691041
170	0xbd89fa4e	-0.06737195
171	0x3c896368	0.016771033
172	0x3d035aef	0.032069143
173	0xbc8431b6	-0.016136985
174	0xbd3ab5dd	-0.045583595
175	0xbdde3251	-0.10849441
176	0x3d9611aa	0.07327588
177	0xbdc8bde0	-0.09801841
178	0x3d7b6e86	0.0613847
179	0x3d48b325	0.04899897
180	0xbc99e342	-0.018785123
181	0x3e0e9d8c	0.13927287
182	0x3df76d8c	0.12081441
183	0x3d552453	0.052036595
184	0xbc8e8c94	-0.017401017
185	0xbd1b89e4	-0.0379733
186	0xbdb51dc3	-0.08843567
187	0x3e7ab86b	0.24484412
188	0x3dcb7b63	0.099356435
189	0xbd768944	-0.0601895
190	0xbe3067d6	-0.1722711
191	0x3daad239	0.08340878
192	0x3d9a0d6d	0.07522092
193	0x3cc8d473	0.024515366
194	0x3e474ca2	0.19462827
195	0xbf0a7252	-0.5408069
196	0xbe310efd	-0.17290874
197	0xbdfa1855	-0.12211672
198	0x3e9b1540	0.3028965
199	0x3f826277	1.0186299
200	0xbea707e9	-0.32623222
201	0x3d227376	0.039660893
202	0xbed165e0	-0.40898037
203	0xbe4233e2	-0.18965104
204	0xbf255225	-0.6457847
205	0xbef67907	-0.48139212
206	0xbd49cff5	-0.04927059
207	0xbe0c5df5	-0.13707717
208	0x3b39955d	0.0028317787
209	0x3deeffc8	0.1166988
210	0xbe270a33	-0.16312484
211	0xbf1fe2ab	-0.6245524
212	0xbdd85f3b	-0.10565039
213	0x3e2d0085	0.1689473
214	0xbca6b43d	-0.020349616
215	0xbe94a394	-0.2903105
216	0xbd9a4d59	-0.07534284
217	0x3e07ac9d	0.1324944
218	0x3c17d39b	0.009266759
219	0xbe1c21dc	-0.15247291
220	0x3eadd0f7	0.3394849
221	0x3e3cc678	0.18435085
222	0x3df95c35	0.1217579
223	0xbf416411	-0.75543314
224	0xbdb1e5e9	-0.0868643
225	0xbd77235c	-0.060336456
226	0x3d7b1981	0.06130362
227	0x3c2773ba	0.010220462
228	0xbcb039d1	-0.021511944
229	0x3a7a2bfb	0.0009543297
230	0xbde9b6ac	-0.11411795
231	0xbe0bd4ea	-0.13655439
232	0x3d128fcd	0.03578167
233	0x3da54772	0.08070268
234	0x3c028a95	0.007967611
235	0xbb9a2678	-0.004704293
236	0xbd91185d	-0.07084725
237	0xbdb27752	-0.08714165
238	0x3cfe5a56	0.031048935
239	0xbe3b03ef	-0.1826322
240	0xbdce7b0a	-0.100820616
241	0xbb443f58	-0.0029944982
242	0xbd6d8a47	-0.0579932
243	0xbd998f27	-0.07498007
244	0x3e0f7188	0.14008152
245	0xbd62065a	-0.05518184
246	0xbe15b866	-0.14621124
247	0x3ce22ce5	0.027609298
248	0x3d0c96c3	0.034323465
249	0x3d2c7620	0.04210484
250	0xbdd83e0b	-0.10558709
251	0xbd40ace6	-0.04703989
252	0xbddf509f	-0.10904049
253	0xbdac2e70	-0.08407295
254	0xbc5ec62e	-0.013597054
255	0x3dade7bc	0.084914654

context_transformer_0/kq_shared_bottleneck/norm/mul;context_transformer_0/kq_shared_bottleneck/norm/add;context_transformer_0/attention/key/einsum/Einsum;context_transformer_0/attention/key/add;context_transformer_0/attention/value/einsum/Einsum;context_transformer_0/attention/key/add/ReadVariableOp/resource f4 [32]
0	0xbd1f8b94	-0.03895147
1	0xbcb5bd73	-0.022185063
2	0x3d4355c0	0.0476892
3	0xbcd61017	-0.02613072
4	0xbd37ae1f	-0.04484379
5	0xbd516c4f	-0.05112868
6	0xbd988d40	-0.07448816
7	0xbd9f8aab	-0.07790121
8	0xbd5d6ab7	-0.05405685
9	0xbd410fc4	-0.047134176
10	0x3dcac816	0.099014446
11	0x3d6224cd	0.055210877
12	0xbd426732	-0.047461696
13	0x3c7765ea	0.015099982
14	0xbcf81e6b	-0.030287942
15	0x3d3abb84	0.045588985
16	0x3d1df43c	0.038563
17	0x3cb4f989	0.022091644
18	0xbc146d74	-0.009059299
19	0x3c38d05f	0.011280148
20	0x3cd09061	0.02545947
21	0xbd260df8	-0.040540665
22	0xbd12a95e	-0.035806052
23	0xbd77ce9f	-0.060499784
24	0x3d006099	0.031342123
25	0xbd8abdb3	-0.067744635
26	0xbda11c0b	-0.07866677
27	0xbdab1efa	-0.08355518
28	0x3dc3b0eb	0.09555229
29	0x3dc45799	0.095870204
30	0xbdb95626	-0.09049635
31	0x3d1f1a80	0.03884363

context_transformer_0/kq_shared_bottleneck/norm/mul;context_transformer_0/kq_shared_bottleneck/norm/add;context_transformer_0/attention/key/einsum/Einsum;context_transformer_0/attention/key/add;context_transformer_0/attention/value/einsum/Einsum;context_transformer_0/attention/key/add/ReadVariableOp/resource1 f4 [32, 32]
0	0x3ecab9e6	0.39594954
1	0x3e1d86c5	0.15383442
2	0xbe09c096	-0.13452372
3	0xbdbefd06	-0.09325604
4	0xbe5675c3	-0.2094336
5	0x3bba7517	0.0056902277
6	0x3e8ba2e3	0.2727271
7	0x3a588ec1	0.0008261018
8	0xbd0829bf	-0.033242937
9	0xbe2cdc70	-0.16880965
10	0xbeb33e51	-0.3500848
11	0xbdbf6bfd	-0.09346769
12	0x3e761814	0.24032623
13	0x3cc1f582	0.023676638
14	0xbc498ddb	-0.012301887
15	0xbec31721	-0.38103583
16	0xbc439d39	-0.01193934
17	0x3d5514c6	0.052021764
18	0xbe5ec554	-0.21754962
19	0x3d115997	0.03548583
20	0x3cbe5e7e	0.023238417
21	0xbe93cf5d	-0.28869143
22	0xbeeefdc4	-0.46677983
23	0xbca86970	-0.020558089
24	0x3e197f7b	0.14990036
25	0x3d2412c7	0.04005697
26	0x3e333b23	0.17503028
27	0x3e05d181	0.130682
28	0xbf3c51b0	-0.73562145
29	0x3da298a7	0.079392724
30	0xbe664e19	-0.2249073
31	0xbdf40f80	-0.11917019
32	0x3c4d658d	0.012536419
33	0xbd89fbfc	-0.06737515
34	0x3d9e2593	0.077220105
35	0x3e1172cf	0.14203952
36	0xbea4e3d8	-0.3220508
37	0x3d857a66	0.06517486
38	0x3e015f9b	0.12634127
39	0x3d777d28	0.060422093
40	0x3db1ae01	0.08675767
41	0xbdb42609	-0.08796317
42	0xbcf4a0b9	-0.029861795
43	0x3c89fb86	0.016843569
44	0xbdc65323	-0.09683826
45	0xbe0f00ee	-0.13965198
46	0xbd133e36	-0.035948
47	0xbe79af13	-0.24383192
48	0xbd811285	-0.063023604
49	0xbd2f31c1	-0.04277206
50	0x3ebc655c	0.3679608
51	0x3d6d944d	0.05800276
52	0x3d204704	0.039130226
53	0xbcaa5652	-0.020793114
54	0xbd93732c	-0.07199702
55	0xbe037b78	-0.12840068
56	0x3e879c42	0.26486403
57	0x3d8cf128	0.068819344
58	0xbd982031	-0.07428015
59	0x3e03ae89	0.12859549
60	0xbe90cd75	-0.2828175
61	0xbde84381	-0.11341
62	0x3e188289	0.14893545
63	0x3b50bdd8	0.0031851437
64	0xbb19fe76	-0.0023497618
65	0x3b47a8a3	0.0030465506
66	0xbc2a6d3a	-0.010402018
67	0xbdeb9561	-0.11503101
68	0x3ee79dfa	0.45237714
69	0xbdaeea27	-0.08540755
70	0xbe18959c	-0.14900821
71	0xbde16083	-0.11004736
72	0xbdeeed2a	-0.11666329
73	0x3e24a4e2	0.16078523
74	0x3dc49cd4	0.09600225
75	0xbd034e28	-0.032056957
76	0x3dc0c0d1	0.09411777
77	0x3df570d8	0.11984414
78	0x3cc4dc85	0.024030933
79	0x3eaca1af	0.33717105
80	0x3d406e5d	0.04698025
81	0xba02b853	-0.0004986573
82	0xbede1de5	-0.43382183
83	0xbdd62404	-0.10456088
84	0xbdb9da28	-0.09074813
85	0x3dc8b3d2	0.09799923
86	0xbda66405	-0.08124546
87	0x3e2cf0b2	0.16888693
88	0xbe9a4d74	-0.30137217
89	0xbd8f5c2c	-0.07000002
90	0x3c577746	0.013150996
91	0xbd9768fb	-0.0739307
92	0x3e624847	0.22097884
93	0x3d8def54	0.06930414
94	0xbcffd710	-0.03123048
95	0x3d3b8adc	0.045786723
96	0x3d1cff47	0.03832939
97	0x3db7ed80	0.089808464
98	0xbc88841d	-0.016664559
99	0x3d70d9a6	0.058801316
100	0xbe5a7297	-0.21332775
101	0xbce3c0b7	-0.027801855
102	0x3d3d3544	0.046193376
103	0x3d01a847	0.031654622
104	0xbc02e185	-0.007988338
105	0xbcc3f68a	-0.02392127
106	0xbd729905	-0.059227962
107	0xbccdf68a	-0.025141973
108	0xbd2623c3	-0.04056145
109	0xbd77c435	-0.060489852
110	0x3d04d551	0.032429997
111	0xbe1e87b9	-0.15481462
112	0xbd15c869	-0.03656808
113	0x3c483d23	0.012221607
114	0x3e22f0f6	0.15912232
115	0x3d98efeb	0.07467636
116	0xbbb68a20	-0.005570665
117	0xbd4b0de1	-0.049573783
118	0xbd4ef042	-0.050522096
119	0xbd5bd53b	-0.05367015
120	0x3dfa78eb	0.122300945
121	0x3cb076a7	0.021540953
122	0xbd57b112	-0.0526591
123	0x3cebe9ae	0.02879795
124	0xbe85340b	-0.26016268
125	0xbd03974b	-0.032126706
126	0xbd03d3b8	-0.032184333
127	0xbdc59076	-0.09646694
128	0x3d1fe983	0.039041054
129	0x3e9cef22	0.30651194
130	0xbe9675dc	-0.29386795
131	0xbe303fb9	-0.17211808
132	0x3d558794	0.05213125
133	0xbdecf421	-0.115700014
134	0xbdca6655	-0.098827995
135	0xbd20b502	-0.039235123
136	0xbd9ebaa4	-0.077504426
137	0xbe0b5af2	-0.13608912
138	0xbe4b2332	-0.19837645
139	0xbc07450e	-0.00825621
140	0xbc4c7d5c	-0.01248106
141	0x3d9e8d4b	0.07741793
142	0x3de7e5e8	0.11323148
143	0x3de70d0f	0.112817876
144	0xbe04f31b	-0.12983362
145	0x3e192ce8	0.14958537
146	0xbdd64f04	-0.1046429
147	0x3d9b6d02	0.07589151
148	0xbd782ffc	-0.060592636
149	0xbe4ab651	-0.1979611
150	0x3dfc872c	0.123304695
151	0x3e479267	0.19489442
152	0xbe03440b	-0.12818925
153	0xbbdf0309	-0.0068057817
154	0xbcd54019	-0.02603154
155	0xbe37d8ca	-0.17953792
156	0x3d2a9306	0.04164412
157	0x3e392e55	0.1808408
158	0xbed1b6dd	-0.40959826
159	0xbea46ee3	-0.3211585
160	0xbc337e6d	-0.010955435
161	0x3dca3ba3	0.09874656
162	0xbd6b8e8a	-0.057508983
163	0x3d2b1a41	0.041773085
164	0xbecdee93	-0.4022108
165	0x3c8e073c	0.017337434
166	0x3db42c63	0.087975286
167	0x3dd6e420	0.1049273
168	0x3d832db8	0.064052045
169	0xbe2a0c89	-0.16606344
170	0xbd8243ed	-0.06360612
171	0xbc964b80	-0.018346548
172	0xbe11f8a7	-0.1425501
173	0xbd6fad5f	-0.05851495
174	0x3ba16858	0.004925769
175	0xbe9828a4	-0.29718506
176	0xbd2c4309	-0.042056117
177	0x3ca6b299	0.020348834
178	0x3efac48d	0.4897808
179	0x3e09221a	0.13391915
180	0x3adbce18	0.0016769795
181	0xbe279115	-0.16363938
182	0x3cc0cf7c	0.023536436
183	0xbe15780f	-0.1459658
184	0x3e9879eb	0.29780516
185	0x3d92381f	0.071396105
186	0xbd655c8c	-0.055996463
187	0x3db737a4	0.089461595
188	0xbe81a085	-0.2531778
189	0xbb88f451	-0.0041795154
190	0xbd2ca269	-0.042147074
191	0xbe1e18bf	-0.15439127
192	0x3dba304d	0.09091244
193	0x3e50af55	0.20379384
194	0xbdce6439	-0.1007771
195	0x3c3aaaa6	0.011393225
196	0x3d4a735f	0.049426433
197	0xbc11f71e	-0.008909015
198	0xbd920f4b	-0.07131823
199	0x3d3f67e3	0.046729933
200	0xbcfcda5a	-0.030865837
201	0xbd9e488e	-0.077286825
202	0xbe800ec5	-0.25011268
203	0x3d9607bc	0.07325694
204	0x3dcfdd57	0.10149639
205	0x3c5f32c6	0.013622945
206	0x3c93616f	0.017990796
207	0x3da3463b	0.0797238
208	0xb8cd977d	-9.8033786e-05
209	0x3b802274	0.003910357
210	0xbe33042b	-0.17482059
211	0x3de02efc	0.109464616
212	0x3d99df48	0.07513291
213	0xbddcda86	-0.107838675
214	0x3d84334a	0.06455095
215	0x3e0431cc	0.12909621
216	0xbc88df6d	-0.0167081
217	0x3df1f023	0.118133806
218	0x3bcca771	0.0062455465
219	0xbe21229a	-0.15735856
220	0x3d407252	0.046984024
221	0x3d63b635	0.055593688
222	0xbea0e109	-0.31421688
223	0xbe0c761a	-0.13716927
224	0x3de59da8	0.11211711
225	0x3e3c88d9	0.18411578
226	0xbda23e27	-0.07922011
227	0x3cec0ca7	0.028814627
228	0x3e1569be	0.14591119
229	0x3d1285f9	0.035772298
230	0xbda16667	-0.0788086
231	0x3dd46439	0.103706785
232	0x3cadedb2	0.021231506
233	0xbdd81676	-0.10551159
234	0xbe58c54e	-0.21169016
235	0x3dc4f0be	0.096162304
236	0x3da68f32	0.08132781
237	0x3ca29ad4	0.019849218
238	0xbcb28d16	-0.02179579
239	0x3e005c7d	0.12535281
240	0x3d012770	0.03153175
241	0xbd8513b2	-0.06497897
242	0xbe73ff57	-0.23827873
243	0x3e057ea2	0.13036588
244	0x3d8c4b22	0.06850268
245	0xbddcc216	-0.107792065
246	0x3cb36808	0.021900192
247	0x3dd35a65	0.10319976
248	0xbb9d675f	-0.0048035826
249	0x3e001fa0	0.12512064
250	0x3d9741b1	0.073855765
251	0xbe307682	-0.17232707
252	0x3d91a608	0.07111746
253	0x3d25ca0d	0.040475894
254	0xbe950e9f	-0.29112718
255	0xbde3b679	-0.11118788

context_transformer_0/kq_shared_bottleneck/norm/mul;context_transformer_0/kq_shared_bottleneck/norm/add;context_transformer_0/attention/query/einsum/Einsum;context_transformer_0/attention/query/add;context_transformer_0/attention/value/einsum/Einsum;context_transformer_0/attention/query/add/ReadVariableOp/resource;context_transformer_0/attention/Mul;context_transformer_0/attention/Mul/y f4 [32]
0	0xbdb9732e	-0.09055172
1	0x3d92b67c	0.071637124
2	0xbd5fa842	-0.054603823
3	0x3ca87bcf	0.020566849
4	0xbd2c3e78	-0.042051762
5	0x3d594256	0.05304178
6	0xbd8f30bc	-0.06991717
7	0xbdbb1133	-0.0913414
8	0x3dd3558a	0.1031905
9	0x3dcd40d2	0.10022129
10	0x3e0ce119	0.13757743
11	0xbdd51dc9	-0.10406072
12	0x3de9d197	0.11416929
13	0xbe422500	-0.18959427
14	0xbe02c484	-0.12770277
15	0xbdf18012	-0.117920056
16	0x3db7f10b	0.08981522
17	0x3db2bb25	0.08727101
18	0xbdbf85a9	-0.093516655
19	0x3e102b29	0.14078964
20	0x3dc4ad17	0.09603327
21	0xbda63574	-0.08115664
22	0xbd8b1643	-0.067913555
23	0xbd4f8a1c	-0.05066882
24	0x3d9b3aa7	0.075795464
25	0xbe00a2da	-0.12562123
26	0xbe097efb	-0.13427345
27	0xbe05db85	-0.13072021
28	0x3e163868	0.14669955
29	0x3dd4210d	0.103578664
30	0xbe1a9d23	-0.15099005
31	0x3e0f5ba1	0.13999797

context_transformer_0/kq_shared_bottleneck/norm/mul;context_transformer_0/kq_shared_bottleneck/norm/add;context_transformer_0/attention/query/einsum/Einsum;context_transformer_0/attention/query/add;context_transformer_0/attention/value/einsum/Einsum;context_transformer_0/attention/query/add/ReadVariableOp/resource;context_transformer_0/attention/Mul;context_transformer_0/attention/Mul/y1 f4 [32, 32]
0	0xbcb52c89	-0.022115963
1	0xbd8eb8b8	-0.06968826
2	0x3cc7127f	0.024300812
3	0x3c85f17f	0.016350506
4	0x3e01352e	0.12617943
5	0x3ae29187	0.0017285802
6	0xbd5fdaa1	-0.05465186
7	0x3c399233	0.0113263605
8	0x3d98bd0e	0.07457934
9	0x3dd394bc	0.10331103
10	0x3d093f6c	0.03350775
11	0x3e024870	0.12722945
12	0xbcb596e3	-0.022166675
13	0xbd496760	-0.04917085
14	0xbbbfbf8b	-0.005851691
15	0x3ddca1d3	0.10773053
16	0x3dc3623d	0.09540222
17	0xbc5778d7	-0.013151369
18	0xbc3b69ce	-0.0114388
19	0x3d29f79b	0.0414959
20	0x3e02d399	0.1277603
21	0x3c9ff8ea	0.019527871
22	0xbb583d66	-0.003299558
23	0xbd745897	-0.0596548
24	0x3d428c84	0.047497287
25	0x3e1ae287	0.15125476
26	0xbd90b44f	-0.07065641
27	0xbd642b73	-0.0557055
28	0xbc657401	-0.014004708
29	0xbd6597aa	-0.05605284
30	0xbc490d67	-0.012271262
31	0xbb617c21	-0.0034406262
32	0x3c00f4eb	0.007870893
33	0xbde9bb13	-0.11412635
34	0x3c91c08f	0.017792014
35	0xbd1a3215	-0.03764542
36	0x3d310d7f	0.04322576
37	0xbc0870bb	-0.008327658
38	0x3d9175b0	0.07102525
39	0xbd5f2b83	-0.054484855
40	0xbb82b35b	-0.003988666
41	0x3d9ad54f	0.07560217
42	0x3cdc8fdd	0.026924068
43	0x3bdd6039	0.0067558554
44	0x3dad94b4	0.084756285
45	0x3d27c51d	0.040959466
46	0x3d403d4f	0.04693347
47	0xbc270f3a	-0.010196501
48	0x3d5f30ae	0.054489784
49	0xbc610b83	-0.013735655
50	0xbdc10ddd	-0.09426472
51	0xbd25407e	-0.040344708
52	0x3c833eda	0.01602118
53	0x3cfd6925	0.030933926
54	0xbd8cec4e	-0.06881009
55	0xbd4bc44a	-0.049747743
56	0x3ca28b4a	0.019841809
57	0x3c9744d4	0.018465437
58	0x3d73c778	0.0595164
59	0x3cf92bd6	0.03041641
60	0xbd2dc78f	-0.042426642
61	0xba81822c	-0.0009880713
62	0x3c6ac95b	0.014330233
63	0x3cfa18a2	0.030529324
64	0xbd92a48e	-0.071602926
65	0x3e0d257b	0.13783829
66	0xbd130ff1	-0.035903875
67	0x3b4cc6e6	0.0031246482
68	0xbd523f04	-0.051329628
69	0x392e74c3	0.0001663743
70	0xbd967b2b	-0.07347711
71	0x3d50d61d	0.050985444
72	0x3c9223d8	0.017839357
73	0xbdc11089	-0.09426982
74	0xbb82d5e0	-0.003992781
75	0xbcd31b33	-0.025769806
76	0xbdcab3dc	-0.09897587
77	0xbd403bdf	-0.046932098
78	0xbd03f9bd	-0.03222059
79	0x3bb7969c	0.005602671
80	0xbd4631b0	-0.04838723
81	0x3c882673	0.016619897
82	0x3de6e659	0.11274404
83	0x3d5d0dcc	0.053968236
84	0xbc842710	-0.016131908
85	0xbd2d9d6b	-0.042386454
86	0x3df62889	0.1201945
87	0x3d52beb5	0.051451404
88	0xbbe8ddba	-0.00710651
89	0xbca56ebb	-0.020194402
90	0xbd864de2	-0.06557824
91	0xbd361a3b	-0.04445861
92	0x3da4de67	0.080502324
93	0x3d073e29	0.033018265
94	0xbd65150f	-0.055928286
95	0xbd3eec24	-0.04661192
96	0x3c8dcd0c	0.017309688
97	0xbd70f33e	-0.058825724
98	0xbc72d5fb	-0.014821525
99	0xbd1f8611	-0.038946215
100	0x3d4e4364	0.050357237
101	0xbcf9b446	-0.030481469
102	0x3c288e64	0.010287855
103	0xbd5e1bc4	-0.054225698
104	0xbc3b29e0	-0.011423558
105	0x3d86e17f	0.06585979
106	0x3ccff0de	0.02538341
107	0x3cdc7b36	0.02691422
108	0x3c884cfc	0.016638272
109	0x3ca285b1	0.01983914
110	0x3cf75e7c	0.03019642
111	0x3d51cdb4	0.051221564
112	0x3cb38556	0.021914165
113	0x3c1e0e0b	0.009646903
114	0xbd36135d	-0.04445206
115	0xbcac90d6	-0.021065157
116	0x3c252da9	0.010081687
117	0x3c386a9e	0.011255888
118	0xbd050520	-0.03247559
119	0xbba57a08	-0.0050499476
120	0x398920ab	0.00026155016
121	0xbab58c71	-0.0013851059
122	0xbc50aef5	-0.0127370255
123	0x3c05ad7e	0.00815904
124	0xbd42c24f	-0.04754859
125	0x3b343fd4	0.0027503865
126	0xbc6ae5a3	-0.014336976
127	0xbb9b52b2	-0.0047400827
128	0x3dac446e	0.084114894
129	0xbb5de415	-0.0033857871
130	0xbc9a3387	-0.018823398
131	0x3d1ea5c6	0.038732313
132	0xbaf2294a	-0.001847544
133	0xbb527560	-0.0032113418
134	0xbdaef8bd	-0.08543537
135	0xbc5be953	-0.013422328
136	0xbc9d6eb7	-0.019217832
137	0x3d63abe0	0.055583835
138	0x3c9d03c1	0.019166829
139	0xbbf15bf0	-0.007365696
140	0xbd144a0e	-0.036203437
141	0xbd3136ec	-0.04326527
142	0xbcc9b79e	-0.024623688
143	0x3d62cdf6	0.0553722
144	0xbd6ed357	-0.058307018
145	0x3d0295c9	0.031881128
146	0x3c38f170	0.011288032
147	0x3b9393c7	0.0045037004
148	0xbcde1dce	-0.027113821
149	0x3d1a2154	0.03762944
150	0xbca2796a	-0.019833285
151	0x3dbd9642	0.09257175
152	0xbdaaeb1d	-0.083456255
153	0xbd6e0ae0	-0.05811584
154	0xbdd9e62c	-0.10639605
155	0xbccf32c3	-0.02529276
156	0xbd9926b0	-0.07478082
157	0xbd4ba68d	-0.049719382
158	0x3c51bb63	0.012801024
159	0xbc7d98b4	-0.015478302
160	0x3dc96275	0.09833232
161	0xbdff7786	-0.12473969
162	0x3d0f1c55	0.03493913
163	0x3c298053	0.010345536
164	0x3d3ae173	0.04562516
165	0x3beb768c	0.0071857627
166	0x3d0b11ac	0.0339524
167	0xbd30646b	-0.043064516
168	0xbbdf6648	-0.006817613
169	0x3dbf1688	0.09330469
170	0xbc0ba8c0	-0.00852412
171	0x3cdcd498	0.026956841
172	0x3db40fab	0.08792051
173	0x3c87fe50	0.016600758
174	0x3c269d8c	0.010169398
175	0x3ca7de5c	0.020491771
176	0x3d01b290	0.03166443
177	0xbc35a2b3	-0.011086154
178	0xbdb52130	-0.08844221
179	0xbd0d5f72	-0.034514852
180	0x3bae3272	0.005316072
181	0x3d70e4e2	0.05881203
182	0xbe09b3da	-0.13447514
183	0xbcdcebf8	-0.026967987
184	0xbc832beb	-0.016012153
185	0x3bd2585c	0.0064192247
186	0x3caa878e	0.02081659
187	0x3c81a997	0.015827937
188	0xbde8e931	-0.11372603
189	0xbd4dba77	-0.050226655
190	0x3d5f283b	0.054481726
191	0x3d2ba706	0.041907333
192	0x3d3ff8ec	0.04686825
193	0xbc9a6349	-0.018846171
194	0x3bbb931a	0.005724323
195	0x3c24dc60	0.010062307
196	0x3c869d89	0.01643254
197	0xbcfee917	-0.031117005
198	0xbcf1ae3d	-0.029502029
199	0xbcd3aa41	-0.02583802
200	0x3adfe761	0.0017082506
201	0x3d3c752c	0.04601018
202	0xbb8fe41d	-0.004391207
203	0xbcdf9305	-0.027291784
204	0xbb1ea5b7	-0.002420766
205	0xbcdc0e60	-0.026862323
206	0x3cfb714c	0.030693673
207	0x3cb12db6	0.021628242
208	0xbc5a8464	-0.013337228
209	0x3cb3333b	0.021875015
210	0xbc8eb661	-0.01742095
211	0xb93da8a2	-0.00018087265
212	0x3b9f668f	0.004864521
213	0x3bf056a7	0.0073345485
214	0xbd857b7b	-0.06517693
215	0x3d003ae6	0.03130617
216	0xbd3d0c10	-0.04615408
217	0xbd43cb35	-0.047801215
218	0xbd678e57	-0.05653223
219	0xbaf14080	-0.0018406063
220	0xbd432beb	-0.047649305
221	0xbcd62472	-0.026140425
222	0x3c88ee54	0.016715206
223	0xbc32b65a	-0.010907734
224	0x3d2e37b4	0.04253359
225	0xbc486ba4	-0.012232695
226	0x3c1dabb3	0.009623456
227	0xbc86b589	-0.016443985
228	0x3c687087	0.014186985
229	0xbd245041	-0.0401156
230	0xbd0025d0	-0.03128606
231	0xbcafcc03	-0.021459585
232	0xbaa8fd2f	-0.0012892837
233	0x3cb375a0	0.021906674
234	0xbc6e7e7c	-0.014556523
235	0xbc2bbd1b	-0.010482098
236	0xbc39a31e	-0.011330394
237	0xbc54cb0d	-0.012987864
238	0x3cf810c6	0.030281436
239	0xbae72a46	-0.00176365
240	0x3c07890a	0.008272419
241	0x3c417525	0.011807715
242	0xbc6dc7a8	-0.014512934
243	0xbb4dbc71	-0.0031392837
244	0x3b748b37	0.0037314424
245	0xb861f3f8	-5.3871394e-05
246	0xbda60f1b	-0.0810835
247	0x3c790e2f	0.015201136
248	0xbd0eac00	-0.034832
249	0xbcd99af0	-0.026563138
250	0xbd03b940	-0.03215909
251	0xbb50af66	-0.0031842827
252	0x3baf5ad7	0.005351405
253	0xbcf72c0c	-0.03017237
254	0x3ac64bf1	0.0015128833
255	0xbb97920c	-0.0046255644

context_transformer_0/ffn_layer_0/intermediate_dense/einsum/Einsum;context_transformer_0/ffn_layer_0/intermediate_dense/Relu;context_transformer_0/ffn_layer_0/intermediate_dense/add f4 [32]
0	0xbe6d9b43	-0.23203759
1	0xbe990521	-0.29886726
2	0xbd24de50	-0.040251076
3	0xbe6e1158	-0.23248804
4	0xbea2117c	-0.31653965
5	0xbefc7c8f	-0.4931378
6	0xbe365034	-0.17804033
7	0xbe6ffd85	-0.23436554
8	0xbee3b38d	-0.44472924
9	0xbde260da	-0.11053629
10	0xbe4a6b33	-0.19767456
11	0xbd85ee3e	-0.06539582
12	0xbeaadef2	-0.3337322
13	0xbe94b147	-0.29041502
14	0xbed8d411	-0.42349294
15	0xbe95a055	-0.29223886
16	0xbe934322	-0.28762156
17	0xbdf1b944	-0.11802915
18	0xbeba6194	-0.3640257
19	0xbca36ae4	-0.01994843
20	0xbdb07781	-0.086165436
21	0xbdcae02d	-0.099060394
22	0xbe9882cc	-0.2978729
23	0xbecb8d08	-0.39756036
24	0xbea88805	-0.32916275
25	0xbed767b9	-0.42071322
26	0xbe9033a4	-0.281644
27	0xbeb6f481	-0.35733417
28	0xbe3285bb	-0.17433827
29	0xbebbfd8d	-0.3671688
30	0xbe86d743	-0.26336107
31	0xbe996dd1	-0.29966596

context_transformer_0/attention/norm/mul;context_transformer_0/attention/norm/add;context_transformer_0/ffn_layer_0/intermediate_dense/einsum/Einsum;context_transformer_0/ffn_layer_0/intermediate_dense/Relu;context_transformer_0/ffn_layer_0/intermediate_dense/add f4 [32, 32]
0	0x3c6f9902	0.014623882
1	0xbe640236	-0.22266468
2	0x3e79f95e	0.24411532
3	0x3cd1e404	0.025621422
4	0x3da605a5	0.08106545
5	0x3e92e0d3	0.28687152
6	0x3e52c150	0.20581555
7	0xbcf8f01e	-0.030387934
8	0x3e823b01	0.2543564
9	0xbe52fe3a	-0.20604792
10	0xbdbc7001	-0.092010505
11	0xbee4dcdf	-0.4469976
12	0xbe4a192b	-0.19736163
13	0x3e026435	0.12733538
14	0xbf0b1193	-0.5432369
15	0xbd8d0b51	-0.06886924
16	0x3eaaa7e4	0.33331215
17	0xbcaa4519	-0.020784901
18	0x3d18a890	0.03727013
19	0x3e0acd30	0.13554835
20	0x3db3d9b4	0.08781758
21	0x3dbc5002	0.09194948
22	0xbe789c69	-0.24278416
23	0xbe1745bc	-0.14772695
24	0x3deb9727	0.115034394
25	0xbe1f5037	-0.15557943
26	0xbd4fbb5a	-0.05071578
27	0x3e612a1e	0.21988723
28	0x3e4c1594	0.19930106
29	0xbe9de2e0	-0.30837154
30	0x3e945f7c	0.289791
31	0x3d8f770c	0.07005128
32	0xbd365909	-0.044518504
33	0xbdfd0675	-0.12354747
34	0xbd0bb501	-0.034108166
35	0xbd94978c	-0.07255468
36	0xbcc478cb	-0.02398338
37	0x3e635087	0.22198687
38	0x3ea2c6f7	0.31792423
39	0xbd474c61	-0.048656825
40	0x3e0099db	0.12558691
41	0xbe3d9f0f	-0.18517707
42	0xbeb68ace	-0.35652775
43	0xbdc82bc9	-0.09773976
44	0xbe17f471	-0.14839341
45	0x3dbfdc43	0.093681835
46	0xbefd76a8	-0.4950459
47	0xbd1fb8a4	-0.038994446
48	0xbde02328	-0.109442055
49	0xbe21514a	-0.15753666
50	0xbe9f82f3	-0.31154594
51	0x3d20e948	0.039284974
52	0xbe925810	-0.2858281
53	0x3e24d5aa	0.16097131
54	0x3e49e6b0	0.19716907
55	0xbc4c1fdb	-0.012458767
56	0x3e11057d	0.1416225
57	0xbd2252bb	-0.03962968
58	0xbd933621	-0.07188059
59	0x3e312051	0.17297484
60	0x3c8cb568	0.017176345
61	0xbe62813b	-0.2211961
62	0x3d9c1b96	0.07622449
63	0x3d953853	0.072861336
64	0x3d1748d6	0.036934696
65	0x3db59c1c	0.08867666
66	0x3e8ad07a	0.2711218
67	0x3ceca7b9	0.02888857
68	0xbd9ca647	-0.076489024
69	0x3cb79937	0.022411926
70	0xbe4ad516	-0.19807848
71	0x3e2642c3	0.16236405
72	0x3e493dc9	0.19652475
73	0xbd38963f	-0.04506516
74	0xbd812553	-0.06305947
75	0xbbcf437a	-0.0063251825
76	0x3d3ca2fc	0.04605387
77	0x3d075bd4	0.03304656
78	0xbe0647b4	-0.1311329
79	0x3e048411	0.12941004
80	0x3d61282c	0.05496995
81	0x3e4e4d2c	0.20146626
82	0xbd4d106f	-0.0500645
83	0x3e1f8090	0.15576386
84	0xbd1aad43	-0.03776289
85	0xbd9b454c	-0.07581577
86	0xbeacedef	-0.3377528
87	0x3e3d8a78	0.18509853
88	0xbe121013	-0.14263944
89	0xbe710513	-0.23537092
90	0x3d952a28	0.07283431
91	0xbc877eca	-0.01653995
92	0xbd9abad2	-0.075551644
93	0xbe1051df	-0.14093731
94	0xbd1e16e1	-0.038596038
95	0xbe084b0d	-0.1330988
96	0xbe58d101	-0.21173479
97	0x3dd131fb	0.10214611
98	0x3defd368	0.117102444
99	0x3e473ff2	0.19457987
100	0xbd6db116	-0.05803021
101	0x3d8e813f	0.069582455
102	0xbdbbc124	-0.09167698
103	0x3df69572	0.12040223
104	0x3e318fb5	0.17339976
105	0x3e6d7a67	0.23191224
106	0xbf268116	-0.6504072
107	0x3cb3913f	0.021919845
108	0xbccf93cb	-0.025339028
109	0xbdb92843	-0.090408824
110	0xbe94f8f1	-0.29096177
111	0x3c45f026	0.012081182
112	0x3df34de2	0.11880089
113	0xbdb7588d	-0.089524366
114	0xbe8bea3d	-0.27327147
115	0x3d8d0d71	0.06887329
116	0xbc13d6ce	-0.009023381
117	0x3cc47cef	0.023985354
118	0xbe210566	-0.15724716
119	0x3da3d8ef	0.08000361
120	0x3db7ea9d	0.08980296
121	0xbd9a08d1	-0.07521213
122	0x3e1c8a94	0.15287238
123	0x3dc7d4c8	0.09757382
124	0x3e2eea45	0.17081554
125	0xbc168889	-0.009187826
126	0x3d1156e9	0.035483275
127	0xbd228c62	-0.03968466
128	0xbd6c5f41	-0.05770803
129	0x3d78f394	0.06077917
130	0x3e0ea8d7	0.13931595
131	0x3db980f6	0.090578005
132	0xbe94b022	-0.2904063
133	0x3e6ed102	0.23321918
134	0x3d6bdc5e	0.057583205
135	0x3d2c477a	0.042060353
136	0x3e418a1c	0.18900341
137	0xbe0a0bb1	-0.13481022
138	0xbec23548	-0.37931275
139	0xbec7bc6a	-0.39010936
140	0xbe31c736	-0.17361149
141	0xbe3085ab	-0.1723849
142	0x3d5d9862	0.0541004
143	0xbd53f910	-0.051751196
144	0xbd87837a	-0.06616874
145	0x3dc6fc83	0.097161315
146	0xbe421fc6	-0.18957433
147	0x3e42011a	0.18945733
148	0x3e4af828	0.19821227
149	0xbdd24247	-0.10266548
150	0x3df41e89	0.119198866
151	0xbe51581b	-0.20443766
152	0xbd496081	-0.0491643
153	0xbe3a4280	-0.1818943
154	0xbdb8ac83	-0.09017279
155	0xbc7b3843	-0.015333238
156	0x3baf9184	0.005357923
157	0xbe623049	-0.22088732
158	0x3ea93eea	0.33055812
159	0x3c874c7c	0.016515963
160	0xbdded7b8	-0.10880989
161	0x3dddbe41	0.10827304
162	0xbe032a1a	-0.12809029
163	0x3cc1e433	0.023668384
164	0xbdb60b0c	-0.08888826
165	0x3cb5a98b	0.022175571
166	0x3e486f22	0.19573644
167	0xbd21ed8b	-0.03953318
168	0xbdf91bfd	-0.121635415
169	0xbdfcb1f3	-0.123386286
170	0xbdf43c5e	-0.119255766
171	0xbec62b87	-0.38705084
172	0xbd7e5793	-0.062095236
173	0xbbde3eb5	-0.0067823776
174	0xbd7e1510	-0.062031806
175	0xbd975afa	-0.07390399
176	0xbdade70d	-0.08491335
177	0xbe18378a	-0.14864936
178	0x3d8ef8e5	0.069810666
179	0xbdbb3402	-0.09140779
180	0x3e72e693	0.2372077
181	0x3dc05a7d	0.09392259
182	0x3e8e6308	0.2780993
183	0xbc9e8b72	-0.019353602
184	0x3ce7601c	0.02824407
185	0x3e18aaf8	0.1490897
186	0xbd5bc721	-0.0536567
187	0x3d3e2d19	0.046429727
188	0x3c7910cb	0.015201758
189	0xbddae30c	-0.10687837
190	0x3dc91404	0.09818271
191	0x3dc9e2d2	0.09857716
192	0x3db0d206	0.08633809
193	0xbda28954	-0.079363495
194	0xbd49c002	-0.04925538
195	0x3e0fcba9	0.14042534
196	0x3d822839	0.06355328
197	0x3dfc05c0	0.12305784
198	0x3ea7de48	0.32786775
199	0x3d359680	0.04433298
200	0xbe0a57cd	-0.13510056
201	0x3ebad31e	0.36489195
202	0x3dc92f6c	0.09823498
203	0xbe36e6b7	-0.17861448
204	0x3e13fc9f	0.14451836
205	0xbe0b705a	-0.13617077
206	0x3de9b0a6	0.11410646
207	0x3ce6ce7b	0.02817463
208	0x3e53835f	0.20655583
209	0xbd781b42	-0.06057287
210	0xbea2e54d	-0.31815568
211	0x3d02eb97	0.031962957
212	0xbdfeea65	-0.12447051
213	0x3d8e39a7	0.0694459
214	0x3dd28624	0.102794915
215	0x3d3f27d7	0.046668854
216	0xbdc93080	-0.09823704
217	0x3e1b7179	0.15180005
218	0xbd90e464	-0.07074812
219	0x3d8f3fdd	0.06994603
220	0xbe68422e	-0.22681496
221	0xbdd0022a	-0.10156663
222	0xbe9c04f4	-0.3047253
223	0xbd420146	-0.047364496
224	0xbdaa9bf6	-0.083305284
225	0xbe8ba1e3	-0.27271947
226	0x3da85823	0.08219936
227	0xbbeb7915	-0.007186065
228	0x3e725b50	0.23667645
229	0x3e69a3ce	0.22816393
230	0x3e93ddfe	0.28880304
231	0x3e25a854	0.16177493
232	0xbeb3650f	-0.3503804
233	0x3ea486f5	0.32134214
234	0xbdb422fa	-0.08795734
235	0x3db19d36	0.08672564
236	0xbe2b6d7c	-0.16740984
237	0xbe8e34ba	-0.27774602
238	0x3e06f5c3	0.13179688
239	0x3e084390	0.13307023
240	0x3e50632e	0.20350334
241	0x3e113a80	0.14182472
242	0x3be3d0be	0.0069523742
243	0xbe3dd91c	-0.18539852
244	0x3e0ec0b4	0.13940698
245	0x3ea7ca0f	0.32771346
246	0x3d24dd14	0.0402499
247	0x3e80d4a8	0.25162244
248	0xbd82ec5c	-0.06392738
249	0x3e4c4518	0.19948232
250	0x3e0a901f	0.1353154
251	0x3e80a423	0.25125226
252	0xbe9eee06	-0.31040972
253	0xbe163b70	-0.14671111
254	0xbe91ac26	-0.2845165
255	0xbdf360f8	-0.1188373

context_transformer_0/ffn_layer_1/intermediate_dense/einsum/Einsum;context_transformer_0/ffn_layer_1/intermediate_dense/Relu;context_transformer_0/ffn_layer_1/intermediate_dense/add f4 [32]
0	0xbd01d478	-0.031696767
1	0xbe1354fe	-0.1438789
2	0xbddb73b0	-0.10715425
3	0xbe10caca	-0.14139858
4	0x3e2c8a69	0.16849674
5	0xbddb2463	-0.107002996
6	0x3de4810b	0.111574255
7	0xbe5f6f27	-0.21819745
8	0xbdb5262e	-0.08845173
9	0xbe93f338	-0.288965
10	0xbd1aaa12	-0.037759848
11	0x3cf6cce1	0.03012699
12	0x3e0f610c	0.14001864
13	0x3d9940d2	0.074830666
14	0xbe2bdc34	-0.1678322
15	0xbeab558d	-0.33463708
16	0x3e66de76	0.225458
17	0xbe24c443	-0.16090493
18	0xbcb70a52	-0.022343788
19	0x3e093a23	0.13401084
20	0x3e4b8a4e	0.19876978
21	0xbe22b178	-0.15888011
22	0xbd4f2af4	-0.050578073
23	0xbe8943f0	-0.26809645
24	0x3ddbc7ef	0.10731494
25	0xbdeee696	-0.116650745
26	0xbedcae47	-0.43101713
27	0xbe436098	-0.19079816
28	0xbd80e522	-0.062937036
29	0xbe860845	-0.26178184
30	0xbe01ba54	-0.12668735
31	0xbe839856	-0.2570216

context_transformer_0/ffn_layer_0/norm/mul;context_transformer_0/ffn_layer_0/norm/add;context_transformer_0/ffn_layer_1/intermediate_dense/einsum/Einsum;context_transformer_0/ffn_layer_1/intermediate_dense/Relu;context_transformer_0/ffn_layer_1/intermediate_dense/add f4 [32, 32]
0	0xbd494e3b	-0.049146872
1	0x3da4f3af	0.080542915
2	0x3dc2e61d	0.09516547
3	0xbe3e8558	-0.18605554
4	0xbdd045aa	-0.10169537
5	0xbb8c1157	-0.004274528
6	0x3d46c2b9	0.048525546
7	0x3e1c170c	0.15243167
8	0x3e9bb254	0.3040949
9	0xbd0fd046	-0.035110734
10	0xbe542c06	-0.20719919
11	0xbd8a8c94	-0.067650944
12	0x3e0cb0f5	0.13739379
13	0xbe4be2d6	-0.1991075
14	0xbe515c8f	-0.20445465
15	0x3e28b28f	0.16474365
16	0x3df268ac	0.11836371
17	0xbe6187ac	-0.22024411
18	0xbdf93cd3	-0.121698044
19	0x3dfc0c52	0.123070374
20	0xbd48974b	-0.04897241
21	0x3e8cacdc	0.2747563
22	0x3d9782ce	0.07397996
23	0x3f362558	0.7115073
24	0xbd94f051	-0.07272399
25	0xbdcfb6be	-0.10142277
26	0x3db93fe9	0.09045393
27	0xbdbf5195	-0.093417324
28	0x3d49640b	0.049167674
29	0xbd5aea56	-0.053446136
30	0xbeac247c	-0.33621585
31	0xbe0d7008	-0.13812268
32	0x3de262b7	0.110539846
33	0xbe4efaea	-0.20212904
34	0xbca2ea28	-0.019887045
35	0xbe0f23b0	-0.13978457
36	0xbe583b63	-0.21116404
37	0xbdb429ef	-0.08797061
38	0x3de16c62	0.110070005
39	0x3d60be00	0.054868698
40	0x3ea47cbc	0.32126415
41	0x3e685e8c	0.22692317
42	0x3cd550a5	0.02603943
43	0xbe8de60b	-0.2771457
44	0x3ca2fc9c	0.019895844
45	0xbe47efb4	-0.19525033
46	0x3e3c907b	0.1841449
47	0x3db35e90	0.08758271
48	0x3dfa4cc1	0.12221671
49	0xbd9309da	-0.071796134
50	0x3d94a9aa	0.07258923
51	0x3e3e6dba	0.18596545
52	0x3d273044	0.040817514
53	0xbe00a47a	-0.12562743
54	0xbea3db0f	-0.32003066
55	0x3e4d6f41	0.20061971
56	0x3d53152e	0.05153387
57	0xbe63d467	-0.22248994
58	0x3e4318a6	0.19052371
59	0x3dd95f2c	0.10613856
60	0x3e7d1d2d	0.24718161
61	0x3de3b2b8	0.11118072
62	0xbdafd793	-0.085860394
63	0xbe264a5b	-0.16239302
64	0x3c8eb93f	0.017422317
65	0xbb5dc0ed	-0.0033836917
66	0x3d4608bc	0.048348173
67	0x3d593c5c	0.05303608
68	0x3c7956a2	0.015218409
69	0x3c7e3954	0.015516598
70	0xbc715420	-0.01472953
71	0x3d80473d	0.062635876
72	0x3ca21e2d	0.01978978
73	0x3cb40746	0.021976124
74	0x3c591108	0.0132486895
75	0xbc83bed8	-0.016082212
76	0x3ccb7a4e	0.024838593
77	0x3c125f56	0.008933863
78	0xbd6449db	-0.055734497
79	0x3d80f819	0.06297321
80	0xbc03d972	-0.0080474485
81	0xbc19560d	-0.009358895
82	0xbd0ab5e0	-0.033864856
83	0x3cd6d15b	0.026222875
84	0xba54075f	-0.00080882566
85	0xbb06e37a	-0.0020582364
86	0x3ce94989	0.028477447
87	0x3c715101	0.0147287855
88	0xbab29d49	-0.0013627197
89	0x3c573971	0.013136254
90	0xbc1df03f	-0.009639799
91	0x3cf47fc0	0.029846072
92	0x3ca41b4d	0.02003255
93	0xbc3dd2ff	-0.01158595
94	0xbd1d1566	-0.038350485
95	0xba5eda3e	-0.00085011485
96	0xbe8fe8df	-0.28107354
97	0xbeae9313	-0.34096584
98	0x3d660e51	0.056165997
99	0x3cfe1383	0.031015163
100	0xbd33ad32	-0.043866344
101	0x3f0bb43b	0.54571885
102	0x3e26d582	0.16292384
103	0x3dd7df23	0.10540607
104	0x3e24440b	0.16041581
105	0xbe888d74	-0.2667042
106	0xbb10b908	-0.0022082943
107	0xbdeb7252	-0.11496414
108	0xbd2b91e1	-0.041887168
109	0x3da71d3c	0.08159873
110	0xbb2b8f29	-0.002617786
111	0x3d72a20e	0.05923658
112	0x3d8d0617	0.06885927
113	0x3e96ab5a	0.29427606
114	0xbd50b0b7	-0.05094978
115	0x3d32b742	0.0436318
116	0xbd56ea2a	-0.05246941
117	0x3b48334b	0.003054815
118	0xbd2f9042	-0.042862184
119	0x3d2d1b05	0.042262096
120	0x3eb15530	0.34635305
121	0xbcd84dbf	-0.02640426
122	0x3ce11d17	0.027479691
123	0xbd62f6bd	-0.05541109
124	0xbe28c31f	-0.16480683
125	0x3ddea6e1	0.108716734
126	0xbda3d904	-0.08000377
127	0xbd8e3f75	-0.06945697
128	0x3d6c6d49	0.05772141
129	0x3d98be9c	0.07458231
130	0x3df92104	0.121645
131	0xbd743514	-0.05962093
132	0xbe455048	-0.19268906
133	0xbc0e2b95	-0.008677383
134	0x3df217c1	0.11820937
135	0x3e385fcd	0.18005295
136	0x3eaa6f6d	0.33288136
137	0x3e0f4ec4	0.1399489
138	0xbd3675bc	-0.044545874
139	0xbcbf7e7d	-0.023375744
140	0xbd37f7a7	-0.044913914
141	0xbcdc8743	-0.026919967
142	0xbda92abe	-0.082601056
143	0x3d1e1823	0.038597237
144	0x3e226aa2	0.1586099
145	0x3df1438f	0.11780464
146	0x3d34dec8	0.044157773
147	0x3e29436b	0.16529624
148	0x3cf0ce9d	0.029395396
149	0x3cceea0d	0.025258088
150	0x3d5e7dd3	0.054319214
151	0x3e61365d	0.21993394
152	0xbd0a35c7	-0.033742692
153	0xbe38db70	-0.18052459
154	0x3e21be0c	0.15795153
155	0x3e591466	0.21199188
156	0x3e5edfda	0.2176508
157	0xbdb44d7e	-0.08803843
158	0xbe4cc617	-0.1999744
159	0xbe6a755e	-0.22896335
160	0x3c41a6b2	0.011819528
161	0xba75100a	-0.00093483983
162	0xbb6d0110	-0.0036163963
163	0x3ce60ce1	0.028082313
164	0xbcf4d08c	-0.0298846
165	0x3ce1520a	0.02750494
166	0xbd3d6cb9	-0.046246264
167	0x3b8e8a55	0.0043499866
168	0x3cf25e6a	0.029586036
169	0x3c9e28d6	0.019306581
170	0xbcc22cf2	-0.023703072
171	0xbb5e76fd	-0.0033945434
172	0x3d15cfd7	0.036575165
173	0x3b9302fb	0.0044864393
174	0xbc639d70	-0.0138925165
175	0x3c858a68	0.016301349
176	0x3c2cdfc5	0.010551398
177	0x3d18e2fd	0.037325848
178	0xbcc20673	-0.023684716
179	0xbafbd33c	-0.0019212733
180	0xbbc23f88	-0.0059279837
181	0xbcd22372	-0.025651667
182	0x3959bef1	0.00020765864
183	0x3d9690f6	0.07351868
184	0xbc53cb06	-0.0129268225
185	0x3cf1457c	0.029452078
186	0x3c87d357	0.016580267
187	0x3cd8e4fd	0.026476378
188	0x3c70440b	0.01466466
189	0xbbcf5419	-0.006327164
190	0xbceeaef8	-0.029136166
191	0x3b9276d9	0.004469734
192	0xbe5d8987	-0.21634494
193	0x3d7c2c61	0.06156576
194	0x3e57807d	0.21045108
195	0x3b985a8b	0.0046494654
196	0xbe06cd40	-0.13164234
197	0x3eb3a4a2	0.35086542
198	0x3d6e3912	0.058159895
199	0x3e7128fc	0.2355079
200	0x3eaf6722	0.34258372
201	0x3d13c953	0.03608067
202	0x3dbaf3c9	0.091285296
203	0x3d3e0e2e	0.04640024
204	0xbe728209	-0.23682417
205	0x3c983564	0.018580146
206	0x3dd5f558	0.10447186
207	0x3e9c94d0	0.30582285
208	0xbda9e5ed	-0.08295808
209	0x3e5de2bc	0.21668524
210	0x3d340393	0.04394872
211	0x3bbb1136	0.005708839
212	0x3d6a0c90	0.057140887
213	0xbd8ec6a2	-0.0697148
214	0x3d938894	0.072037846
215	0x3dcfe608	0.10151297
216	0xbd14eef6	-0.036360703
217	0xbe913974	-0.28364146
218	0x3dddbfba	0.108275846
219	0x3de72476	0.11286251
220	0x3d965b5c	0.07341644
221	0xbcceea24	-0.025258131
222	0xbe1b30bd	-0.15155311
223	0xbe4337ad	-0.19064207
224	0xbec2540d	-0.3795475
225	0xbc3d824a	-0.011566708
226	0x3dc51794	0.09623638
227	0xbe2761c5	-0.1634589
228	0xbd9ab814	-0.07554641
229	0x3e01eeb3	0.12688713
230	0x3cd88abe	0.026433345
231	0x3e455b86	0.19273195
232	0x3e8d2679	0.27568415
233	0xbc84fc81	-0.016233684
234	0xbe951e9a	-0.2912491
235	0xbd517ecc	-0.051146314
236	0x3cd15544	0.025553353
237	0xbe818a9b	-0.2530106
238	0xbe68231d	-0.22669645
239	0x3e21870c	0.15774173
240	0x3d8e5487	0.06949716
241	0xbe5c81a5	-0.2153383
242	0xbaa226da	-0.0012371198
243	0x3dccca83	0.099995635
244	0x3e899428	0.26870847
245	0x3dd59942	0.10429622
246	0x3e506077	0.20349298
247	0x3eea228e	0.45729488
248	0xbd6b9bd6	-0.057521664
249	0xbd15ddf2	-0.036588617
250	0x3e867453	0.26260623
251	0xbc64ccf9	-0.013964885
252	0x3da3d6d5	0.0799996
253	0x3dbe71ed	0.09299073
254	0x3dc54a28	0.09633285
255	0xbe1cbee7	-0.15307198

context_transformer_0/ffn_layer_2/intermediate_dense/einsum/Einsum;context_transformer_0/ffn_layer_2/intermediate_dense/Relu;context_transformer_0/ffn_layer_2/intermediate_dense/add f4 [32]
0	0x3cfa08bb	0.030521741
1	0xbeb26534	-0.34842837
2	0xbeabd400	-0.3356018
3	0xbeaef7bb	-0.34173378
4	0xbe918abf	-0.28426167
5	0xbe75c980	-0.24002647
6	0xbe872396	-0.26394337
7	0x3eb295a3	0.3487979
8	0xbe0a16ee	-0.1348531
9	0xbc7aaffc	-0.015300747
10	0xbdd95d46	-0.106134936
11	0x3bdb651f	0.006695404
12	0xbd28ed4a	-0.04124192
13	0xbe2f23b7	-0.17103468
14	0xbe742639	-0.23842706
15	0x3e0bef1e	0.13665435
16	0xbec6dcd7	-0.38840362
17	0xbe0f5901	-0.13998796
18	0xbdd7b1e5	-0.105319776
19	0x3dd6336e	0.10459028
20	0xbe4eefc8	-0.20208657
21	0x3d6509ba	0.05591748
22	0x3daeac9c	0.085290164
23	0xbe388be6	-0.18022117
24	0xbe3dd52a	-0.18538347
25	0xbe1a5148	-0.15070069
26	0x3e6d3224	0.23163658
27	0xbdf24173	-0.1182889
28	0xbda98376	-0.08277027
29	0xbe6a92fd	-0.22907634
30	0x3d5201a0	0.05127108
31	0xbda74ad8	-0.08168572

context_transformer_0/ffn_layer_1/norm/mul;context_transformer_0/ffn_layer_1/norm/add;context_transformer_0/ffn_layer_2/intermediate_dense/einsum/Einsum;context_transformer_0/ffn_layer_2/intermediate_dense/Relu;context_transformer_0/ffn_layer_2/intermediate_dense/add f4 [32, 32]
0	0x3d6d474a	0.057929315
1	0x3bf916e7	0.007601607
2	0x3e5991bd	0.21247001
3	0x3dc524e0	0.09626174
4	0xbe4206d5	-0.18947919
5	0x3e69aa9b	0.22818987
6	0xbc9f103b	-0.019416919
7	0x3e290aff	0.16508101
8	0x3dc040a5	0.0938733
9	0x3cdd08e4	0.026981778
10	0x3cd3cabe	0.025853511
11	0xbe6699e0	-0.22519636
12	0x3d8d29d5	0.068927445
13	0xbcb52ed1	-0.02211705
14	0x3d5838b9	0.05278847
15	0x3ea833c1	0.32851985
16	0xbd6e8570	-0.058232725
17	0xbd86fa1e	-0.06590675
18	0x3dc4b3fe	0.09604643
19	0x3dc5496b	0.09633144
20	0x3d761644	0.060079828
21	0x3e6afbd7	0.22947632
22	0xbd85c122	-0.06530978
23	0x3e943426	0.28946036
24	0xbdb099e7	-0.086231045
25	0xbcb22dfd	-0.021750445
26	0x3e409758	0.18807733
27	0x3e5c45ec	0.21511048
28	0xbdda0a56	-0.10646503
29	0xbd62605e	-0.055267684
30	0xbe802665	-0.25029293
31	0xbdeadf1a	-0.114683345
32	0x3dd8f535	0.105936445
33	0x3d8f8ff2	0.07009877
34	0x3e2e74fa	0.1703681
35	0xbebe2de3	-0.37144384
36	0x3e55a8d1	0.2086518
37	0xbd44d976	-0.04805895
38	0xbd59e9c3	-0.05320145
39	0x3e0c8d84	0.13725859
40	0x3e8212a1	0.25404838
41	0xbe1a4e64	-0.15068966
42	0xbe588ed5	-0.21148236
43	0xbe29e618	-0.1659168
44	0x3e06c3af	0.13160585
45	0x3e0d5861	0.13803245
46	0xbe82711f	-0.2547693
47	0x3d14ce24	0.036329404
48	0x3e30a78d	0.17251416
49	0xbe753fa5	-0.2395006
50	0xbd14969d	-0.03627645
51	0x3eae4189	0.34034374
52	0xbe2b310b	-0.16717927
53	0xbda5acc5	-0.08089594
54	0x3d727427	0.059192803
55	0x3e147d35	0.14500888
56	0x3b47a46f	0.0030463
57	0xbe1ee414	-0.15516692
58	0xbd80edcd	-0.06295357
59	0x3d959dfa	0.07305522
60	0xbd1ae5c3	-0.037816774
61	0xbe596b14	-0.21232253
62	0x3da9ee43	0.08297398
63	0x3d1676bc	0.036734328
64	0xbcc65525	-0.024210522
65	0x3e11606b	0.14196937
66	0xbcd2a757	-0.02571456
67	0xbe192eef	-0.1495931
68	0xbd83555c	-0.064127654
69	0xbd4009e6	-0.04688444
70	0xbe1e2e87	-0.15447436
71	0xbd720106	-0.059083007
72	0x3e54319e	0.20722052
73	0xbdad3122	-0.08456637
74	0x3c3b2650	0.011422709
75	0xbd961d56	-0.07329814
76	0x3d7d0274	0.061769918
77	0x3e07b825	0.1325384
78	0xbf1dd257	-0.6164908
79	0x3e160d9a	0.14653626
80	0xbcb0e4e0	-0.021593511
81	0x3d90a64e	0.0706297
82	0x3d83f965	0.064440526
83	0xbd129bb1	-0.03579301
84	0x3e5dc279	0.21656217
85	0x3df92a3b	0.12166258
86	0x3db6fb0b	0.089346014
87	0x3de13be5	0.10997752
88	0x3dd7d53e	0.105387196
89	0xbdadcf75	-0.08486835
90	0x3c399b39	0.011328512
91	0xbe53f81c	-0.20700115
92	0xbc3d939b	-0.011570836
93	0x3e6dab91	0.23209979
94	0xbe2a1d74	-0.16612798
95	0x3d1236a8	0.035696656
96	0x3e8fee2a	0.28111392
97	0x3c06b7e6	0.008222556
98	0x3e04ef59	0.12981929
99	0xbe0ed29c	-0.13947529
100	0xbb50b1de	-0.0031844298
101	0x3e150532	0.14552763
102	0xbd0e0561	-0.0346731
103	0xbc49c8f1	-0.012315975
104	0x3e1b5844	0.1517039
105	0x3d5ab466	0.053394698
106	0x3d0e42d7	0.034731712
107	0xbe113631	-0.14180829
108	0xbbd6870b	-0.00654686
109	0x3dabc0c2	0.08386375
110	0x3d406ddd	0.046979774
111	0x3e88908a	0.26672775
112	0x3c92c45c	0.017915897
113	0x3e47b941	0.19504263
114	0xbd316aba	-0.043314673
115	0xbd62d59c	-0.055379495
116	0x3e88663a	0.26640493
117	0x3dfa65dc	0.122264594
118	0xbc5bf9ab	-0.013426225
119	0x3e1e3ad9	0.15452136
120	0x3eb1b4ba	0.34708196
121	0x3b58e521	0.0033095556
122	0x3d65b73e	0.056082956
123	0xbe1b947b	-0.1519336
124	0xbde22493	-0.11042132
125	0x3ea5fb75	0.3241841
126	0xbe839800	-0.25701904
127	0xbda95754	-0.0826861
128	0x3e3b952a	0.1831862
129	0xbe0f640a	-0.14003006
130	0x3dc9d08f	0.098542325
131	0xbe98ffbf	-0.2988262
132	0x3df0dba8	0.11760646
133	0x3e8b6d0a	0.27231628
134	0x3d684ba0	0.056712747
135	0x3e19d3af	0.15022157
136	0x3ea4b566	0.32169646
137	0xbe32a795	-0.1744674
138	0xbd324a48	-0.04352787
139	0xbe989e13	-0.298081
140	0x3bf79b1b	0.007556332
141	0x3e6a7288	0.22895253
142	0xbdf2dc4b	-0.11858424
143	0x3dcf6848	0.10127312
144	0x3e872014	0.2639166
145	0xbe4c5aa4	-0.19956452
146	0x3d4f812b	0.050660294
147	0x3d9cc457	0.07654636
148	0xbd841d15	-0.064508595
149	0x3e4aa213	0.19788389
150	0xbe12bf42	-0.14330772
151	0x3dc26ec6	0.094937846
152	0x3df8332d	0.12119136
153	0xbc202792	-0.009775059
154	0x3d9f1093	0.07766833
155	0x3da612ba	0.081090406
156	0xbe4d8d27	-0.20073377
157	0x3d3c71ff	0.046007153
158	0x3d89000c	0.06689462
159	0xbdafa679	-0.08576674
160	0xbd4e421d	-0.05035602
161	0xbd7a5bd0	-0.061122715
162	0x3e44c258	0.19214761
163	0xbdb0db1a	-0.0863554
164	0x3d5c0cf8	0.053723305
165	0xbdca6d18	-0.09884089
166	0xbd891cf8	-0.066949785
167	0xbd99ede9	-0.07516081
168	0x3e38e8ce	0.18057558
169	0x3cde4781	0.027133705
170	0x3e8d9259	0.27650717
171	0xbce88e97	-0.028388305
172	0x3e821420	0.2540598
173	0x3de434f8	0.111429155
174	0xbec91617	-0.39274666
175	0x3dfdb3b5	0.12387792
176	0xbdc59485	-0.096474685
177	0x399ac132	0.0002951711
178	0x3d540fd4	0.051772907
179	0xbe3c85c9	-0.1841041
180	0x3ce0f3f0	0.027460068
181	0xbd1bee5c	-0.038069114
182	0xbd5f8081	-0.05456591
183	0x3de8c8cf	0.11366426
184	0x3e5e0706	0.21682367
185	0x3c1d4f3b	0.00960141
186	0xbd98197d	-0.074267365
187	0xbe0b47a9	-0.13601555
188	0xbe3e3e38	-0.18578422
189	0x3dd3cedb	0.10342189
190	0xbefa12eb	-0.48842558
191	0x3ddb080a	0.10694893
192	0xbd28f221	-0.041246537
193	0x3d0b6822	0.034034856
194	0xbde211cc	-0.11038551
195	0xbd880318	-0.06641215
196	0xbcb148cc	-0.021641158
197	0x3e340fd7	0.17584167
198	0xbd9a38c0	-0.075303555
199	0xbd836e66	-0.06417541
200	0xbe1e6adc	-0.15470451
201	0xbdc5566c	-0.09635624
202	0x3e81ac3a	0.2532671
203	0xbe043444	-0.12910563
204	0xbe1367c9	-0.1439506
205	0x3e3d560d	0.18489857
206	0xbd2cc5f0	-0.042180955
207	0xbdae1ca6	-0.08501558
208	0xbd36bb2a	-0.044612087
209	0x3d078dd7	0.033094253
210	0xbe03c1d5	-0.1286691
211	0xbe74de8f	-0.23913024
212	0x3ba93e51	0.0051648994
213	0xbe27bdac	-0.16380948
214	0x3c8e736b	0.01738902
215	0xbe0dbd1b	-0.1384167
216	0xbdbb719f	-0.09152531
217	0x3e878af3	0.26473197
218	0xbd7a3c95	-0.06109293
219	0x3dac94f1	0.08426846
220	0xbe68858b	-0.22707193
221	0x3db85e98	0.09002417
222	0x3df85c9e	0.1212704
223	0x3e3f8cde	0.1870608
224	0x3d611bf6	0.054958306
225	0xbddfb72a	-0.10923608
226	0x3e5dec92	0.21672276
227	0xb98a5a5f	-0.00026388743
228	0xbdb3412c	-0.08752665
229	0x3e3df64a	0.18550983
230	0x3e11c853	0.14236574
231	0x3e22721d	0.15863843
232	0x3edb5b26	0.42842978
233	0x3d8ff747	0.07029586
234	0xbda41929	-0.080126114
235	0x3cc4f0e3	0.024040645
236	0x3c9cb18d	0.019127632
237	0xbd9210ca	-0.071321085
238	0x3df672b4	0.12033597
239	0x3c62daa0	0.01384607
240	0x3dc45dfa	0.09588237
241	0x3dc0567b	0.09391495
242	0xbe541dc9	-0.20714487
243	0x3eae23cd	0.3401169
244	0xbd90cdc4	-0.07070497
245	0xbde6a952	-0.11262764
246	0xbceb9719	-0.028758572
247	0x3d27bbf9	0.04095075
248	0x3d18f9e2	0.03734768
249	0xbeaba2f2	-0.33522755
250	0x3e40669a	0.1878914
251	0x3de76f7b	0.1130056
252	0x3cc4ad08	0.024008289
253	0xbe0644e3	-0.13112216
254	0xbe2f66c3	-0.17129044
255	0xbe29e969	-0.16592945

context_transformer_0/ffn_layer_3/intermediate_dense/einsum/Einsum;context_transformer_0/ffn_layer_3/intermediate_dense/Relu;context_transformer_0/ffn_layer_3/intermediate_dense/add f4 [32]
0	0xbe7a7b7b	-0.24461167
1	0xbe8b5a1b	-0.27217183
2	0xbdf9c492	-0.12195696
3	0xbcb14b07	-0.021642221
4	0xbc975cc1	-0.018476846
5	0xbdebe6fd	-0.11518667
6	0xbd76c5f4	-0.060247377
7	0xbd898050	-0.06713927
8	0xbe4b3491	-0.19844271
9	0xbda19d24	-0.078913
10	0xbccbf9bd	-0.024899358
11	0x3cafebbd	0.021474713
12	0xbdde7c0a	-0.10863502
13	0xbdf65035	-0.12027017
14	0x3da13000	0.078704834
15	0xbe37ee5f	-0.17962025
16	0xbe9ed753	-0.31023654
17	0x3c871526	0.016489577
18	0xbead476c	-0.33843553
19	0xbdac7040	-0.084198475
20	0xbde1d67c	-0.11027238
21	0xbdbf3c8d	-0.09337721
22	0xbe3cb6c6	-0.18429098
23	0xbde82d56	-0.11336772
24	0x3e1937b0	0.1496265
25	0x3cc3166a	0.023814399
26	0xbdde9c0e	-0.10869609
27	0xbdfe829e	-0.12427257
28	0xbe082b3c	-0.13297743
29	0xbe268a07	-0.16263591
30	0xbe152d37	-0.1456803
31	0xbeb48480	-0.3525734
