.dart_tool/chrome-device/Default/optimization_guide_prediction_model_downloads/78f22392-a76d-4fd9-bfcb-7cb44388f721/model.tflite (tflite, 410364 bytes, 166 tensors)

context_transformer_0/bottleneck_input/norm/add f4 [32]
000000 be e2 c4 3d 14 bd 65 3d f6 7a 65 3c fa a3 eb 3d
       0.0961356 0.056088522 0.014006367 0.115058854
000010 41 1d 36 3c 9e 8d bc 3d 8e 3c f5 bd 89 48 29 be
       0.011115373 0.09206699 -0.119744405 -0.16531576
000020 1e c4 4c 3d 68 23 f0 bd ea f6 a8 bd 60 36 1c 3d
       0.04999172 -0.11725503 -0.0825022 0.038137794
000030 dd 18 f8 bd 80 a5 43 bd a4 4b 9b 3d 08 0f c5 3d
       -0.12114117 -0.047765255 0.07582787 0.096220076
000040 06 71 12 bc 50 ac 3a bd 7e 11 49 3e f8 fc 00 bd
       -0.00893808 -0.045574486 0.19635579 -0.03149125
000050 15 f2 f1 bd 16 48 23 be c2 f4 10 3d c2 b3 8f bd
       -0.118137516 -0.15945467 0.03538967 -0.07016708
000060 94 0e 17 be 76 a5 39 bd 63 86 db bd 68 29 34 bd
       -0.14751655 -0.04532381 -0.107189916 -0.0439848
000070 14 56 1d 3e a7 bb 8e bc 4c 53 39 3e 4e fc 15 3a
       0.15364867 -0.017423464 0.18098181 0.0005721495

context_transformer_1/bottleneck_input/norm/add f4 [32]
000000 73 a5 a4 bd 74 c3 ae 3d ec d4 f7 ba 0b e4 97 be
       -0.080393694 0.085333735 -0.001890806 -0.2966617
000010 ee da cc 3d cb fb 9c bd cc 73 c7 bd 89 87 71 be
       0.10002695 -0.07665213 -0.097388834 -0.23586859
000020 a7 47 e2 3d e2 a1 96 3d 9a 58 b2 3d 18 30 0a be
       0.11048823 0.073550954 0.08708306 -0.13494909
000030 d4 36 3a be 0a 7c a5 3d 18 4a cd 3d 52 1a ee bd
       -0.18184978 0.08080299 0.10023898 -0.11626114
000040 ed a1 c3 bd 00 32 32 b9 44 a2 80 bb 76 70 2f bc
       -0.09552369 -0.0001699403 -0.0039255936 -0.010707965
000050 da d3 f6 3d 5e fe 8e bc 6e 46 c6 3d 82 32 0c be
       0.12052126 -0.017455276 0.09681402 -0.13691142
000060 23 91 a0 bb d0 a0 13 be 8c 82 90 3c b4 0d 0c bc
       -0.004900114 -0.14416814 0.017640375 -0.008548189
000070 99 23 0a 3e 7e dd 7f 3d 60 f3 ac ba ba d2 ff bd
       0.13490142 0.06246709 -0.001319509 -0.12491365

mention_transformer_0/bottleneck_input/norm/add f4 [32]
000000 1c 3a dd 3d ba 36 0e be 96 7d ba bd 4a 8d 8d be
       0.10802099 -0.13888064 -0.09105985 -0.27646858
000010 6e 55 06 3e 12 3b 7b 3e fe e5 38 be b2 55 96 bd
       0.13118526 0.24534252 -0.18056485 -0.07340564
000020 8c b1 f4 3d ca 15 8a bd 14 c8 6d be 76 01 1b be
       0.11947927 -0.06742437 -0.23220855 -0.15137276
000030 5b 43 48 bd d0 06 8e bc 18 96 c4 bc 15 cb 68 3e
       -0.04889236 -0.017337233 -0.023997352 0.2273372
000040 6d be cc 3c bd 86 4e 3d 12 d4 fb bc 42 2e 9f 3e
       0.024993146 0.050421465 -0.030740771 0.3108998
000050 1c 26 53 be 68 d8 37 3e f6 3c 67 be 06 70 a3 3d
       -0.20620006 0.17953646 -0.22581849 0.07980351
000060 32 00 21 3e 9b fb 1a be c5 b1 a6 bd 78 7b 42 3d
       0.15722731 -0.15135042 -0.081393756 0.04748103
000070 0b 5f 68 3e ea f5 37 3d 2e ee d7 bc 08 1a 33 3e
       0.22692506 0.044912256 -0.02635869 0.17490399

mention_transformer_1/bottleneck_input/norm/add f4 [32]
000000 bf a5 29 be 1f 1f 70 3e 84 5d 9e 3e 41 94 6f 3d
       -0.16567133 0.23449372 0.30930722 0.058490995
000010 49 59 ca bd 95 40 b8 3d 6e 5e 31 3e 0d fa 0e 3f
       -0.09880311 0.08996693 0.17321178 0.558503
000020 db f7 38 3e 20 41 1c 3f ef 9a 39 3e 1a c9 3d 3e
       0.180633 0.6103687 0.18125509 0.18533745
000030 36 3d 50 3d c0 29 f0 bb 8a ea 42 3e 08 ad e4 3e
       0.050839625 -0.0073291957 0.19034782 0.44663262
000040 cf cc 3f 3e a6 f2 b1 3e 0e c7 cb 3e 50 ca 32 bd
       0.18730472 0.3475544 0.39800304 -0.04364997
000050 42 78 06 3f 0d f5 84 be c2 8a c0 3e 11 39 11 be
       0.5252725 -0.2596821 0.37605864 -0.14181925
000060 17 97 5b 3e 48 0c a0 3b a8 c7 e7 be bf 14 3c 3e
       0.21444355 0.0048842765 -0.45269513 0.18367289
000070 49 4d 8a 3e 3c ee ad 3e b8 fd 67 be 98 68 ac 3c
       0.2701209 0.3397082 -0.2265538 0.021045968

context_transformer_0/attention/value/add;context_transformer_0/attention/value/einsum/Einsum;context_transformer_0/attention/value/add/ReadVariableOp/resource f4 [32]
000000 89 74 a9 3d da 00 e8 bd 32 4c a6 bd d8 c5 49 bd
       0.082741804 -0.113282874 -0.08120002 -0.049260944
000010 e3 9e 73 bd d0 3b 40 3c c3 4d 04 bd 43 c3 70 bd
       -0.059477698 0.01173301 -0.03230072 -0.058779966
000020 9b 42 6b 3d 55 19 e9 3b 15 41 21 3d ba 11 3b bd
       0.057436567 0.0071136155 0.039368708 -0.045671202
000030 c1 9b 8c bc 00 71 54 3d dd c2 f3 bc ca 29 7c 3d
       -0.017164113 0.051865578 -0.029756004 0.06156329
000040 98 d9 b3 3c ec 40 9b bc 80 c1 13 bd 09 b0 66 3d
       0.021954343 -0.018951856 -0.036073208 0.056320224
000050 bd 4f 31 3d d0 37 3f 3d fd 7b e8 bc 7c f1 5d bd
       0.043288935 0.046684086 -0.028379435 -0.054185376
000060 fb eb 8b 3d 64 e8 4a bd 23 43 00 bd 9b be 9f 3d
       0.06832119 -0.04953803 -0.031314027 0.07800027
000070 8a 7e 9a bd 58 7b 5c 3d fb f3 b1 bd 9f c1 9d 3d
       -0.07543667 0.053828567 -0.08689114 0.07702946

context_transformer_0/bottleneck_input/norm/mul f4 [32, 32]
000000 96 e5 d1 3e 1d 5d 61 3b 71 61 91 be 48 d5 81 3e
       0.40995473 0.0034387775 -0.28394654 0.25358033
000010 f9 c6 87 be 45 c5 44 3f 08 ef 6b bf 89 db ab 3e
       -0.26518992 0.7686351 -0.9216161 0.3356593
000020 da 0a 50 3e 66 3d 0a be 16 af 9c 3e 5a 51 17 bf
       0.2031664 -0.13499984 0.3060233 -0.5910851
000030 52 d0 8f be 62 01 a4 3e 9d 64 25 bd fc a6 00 3d
       -0.28088623 0.32032305 -0.040379155 0.03140925
000040 f2 9d 08 bf 38 5c 00 3f 63 06 05 3e b8 66 17 bf
       -0.53366005 0.50140715 0.12990718 -0.5914111
000050 bb e6 90 bd fc 48 ce be f1 08 77 be 99 6d b1 be
       -0.07075258 -0.40290058 -0.24124505 -0.3465393
000060 a7 8a 14 3a c6 53 b8 3e b0 69 89 3e 3d d4 a5 3e
       0.0005666413 0.36001414 0.26838446 0.32388487
000070 94 31 f0 3e b4 ef 29 3e 3f 12 8a be 63 7c ff bd
       0.46912825 0.16595346 -0.26967046 -0.12474897
000080 28 aa 66 be 7b 4a b8 3d 1d 31 3d be d3 5b 8a 3e
       -0.22525847 0.08998581 -0.18475766 0.2702318
000090 65 24 df be d3 bc 31 3e ad d2 d1 be 85 c0 aa 3d
       -0.43582454 0.17357187 -0.40981045 0.083375014
0000a0 85 05 ac be df 23 59 3e 2d c8 64 3b a1 91 b2 3e
       -0.3359796 0.2120509 0.0034909353 0.3487673
0000b0 4d 23 2d be 17 e8 ad be bf a8 2d 3e fd 1d 8b 3d
       -0.16907997 -0.33966133 0.16958903 0.06792829
0000c0 4d 94 10 3e 61 5f a9 bd 2b 0d 43 3e c3 08 24 3f
       0.14119072 -0.08270145 0.19047992 0.6407587
0000d0 7b 87 3b bd 54 36 10 3f 5c 10 04 bf e2 d7 c1 3e
       -0.0457835 0.563329 -0.5158746 0.37860018
0000e0 7a a7 a6 3d e8 4e 13 be 0d 36 04 3e 46 f0 41 3e
       0.08137412 -0.14385569 0.12911244 0.18939313
0000f0 d7 5b 93 bd 58 1f 19 3e c4 41 ac 3e d5 94 ea 3c
       -0.071952514 0.14953363 0.33643925 0.028635422
000100 93 6b 33 3e c6 1f 61 bc d8 ca dc be 9c 44 67 3e
       0.17521505 -0.0137404855 -0.43123507 0.22584766
000110 f3 93 02 3f 5e e9 a3 3e 5f e3 60 be d1 67 2a 3f
       0.51007 0.32013983 -0.21961735 0.6656466
000120 20 f6 52 be b3 ba 8b 3e c3 9e 57 3c 89 cc 54 3a
       -0.20601702 0.27290878 0.01316041 0.00081176363
000130 84 a6 cf bd 9e d4 92 be b7 82 a7 be bf 82 2d 3c
       -0.10139182 -0.2867784 -0.32716915 0.010590254
000140 af c2 cc 3e 69 49 c6 3e 4a 16 a1 be 9f 4e 8b 3e
       0.39992282 0.38727883 -0.31462318 0.2720842
000150 48 75 3f 3d e1 98 55 3f 17 83 2e be 40 b6 c0 3d
       0.046742707 0.834364 -0.17042194 0.094097614
000160 80 e6 85 3e b1 8b d4 be 7c 35 b6 bd 4d ef b7 3e
       0.2615242 -0.41512826 -0.0889692 0.3592476
000170 42 dc f6 3e a4 de 13 bd 7c 94 a8 bd 1e 76 60 3c
       0.48214918 -0.036101 -0.08231446 0.013700036
000180 fe 7f a0 3d 3e 6e c0 bd c8 c1 bb bd 0c 26 f1 bc
       0.078369126 -0.09396027 -0.0916782 -0.029437087
000190 e9 18 f4 3e c4 7a 4f bc a5 c1 d0 3d 69 a0 a9 be
       0.47675255 -0.012663547 0.10193185 -0.33130196
0001a0 5b 73 a1 3e 19 b0 12 bf de 6c 44 3e 54 50 11 bd
       0.31533322 -0.57299954 0.19182155 -0.035476997
0001b0 7b ae 1c 3f d9 48 85 3e 08 bc 85 be dc bf 25 3e
       0.61203736 0.2603214 -0.2612002 0.1618647
0001c0 0e 8e 06 be 1d d2 c3 3d c5 a2 a3 3d a2 83 1c bf
       -0.13140127 0.0956156 0.0799003 -0.61138356
0001d0 0f 2a 17 3d 0b 52 ae be a6 aa d7 3e fe 57 a0 be
       0.036905345 -0.3404697 0.42122382 -0.31317133
0001e0 6a 77 54 bc 86 ec b1 3e 8d ec 3f be cc be ed be
       -0.012967924 0.34750766 -0.1874258 -0.4643463
0001f0 89 46 ea be 19 d6 25 bd 0d 5e 8a 3c e9 fb 26 be
       -0.4575694 -0.040487383 0.01689055 -0.16307034
000200 ee 9b fc 3c f3 6a 78 3d 79 f5 e0 bc 50 7f 8a bd
       0.030836072 0.06064887 -0.0274608 -0.06762564
000210 3a fb 4d bd 2f 22 e7 bd 74 50 e9 bc 50 72 a9 3e
       -0.050288416 -0.11285817 -0.028480746 0.33095026
000220 92 bd 69 be 17 67 78 3e 23 31 e6 bd 79 8f 62 3e
       -0.22826222 0.24258076 -0.11239841 0.22125043
000230 a9 cd 79 be e3 4a 89 bd 84 64 86 bc 3a 08 ac 3c
       -0.2439486 -0.06703737 -0.016405351 0.021000016
000240 e2 9e ac 3d 39 e2 1c bd 94 30 e9 3d e4 61 1c 3f
       0.08428742 -0.03830168 0.11386219 0.6108687
000250 fa c2 2d 3d 21 9f 8c 3e 85 d2 65 3c 57 68 ca bc
       0.042422272 0.27465156 0.014027243 -0.024707956
000260 74 70 f7 bd 33 51 c1 be 61 19 70 3e 64 a8 92 3e
       -0.120819956 -0.37757263 0.23447181 0.28644097
000270 e4 3a 87 3e e9 4a da bc fc 9e 3a 3e e9 fc cd 3c
       0.26412117 -0.026647048 0.1822471 0.025145011
000280 f2 09 0c bf 74 d9 b6 be 88 e7 4c be 33 be a6 3e
       -0.54702675 -0.3571278 -0.20010197 0.32566985
000290 26 1d 76 3e 3d 88 7d bc cb 11 fd 3b 7d 68 9a 3f
       0.24034557 -0.015474376 0.0077230684 1.2063137
0002a0 23 bd 0d be b7 53 04 be cc c4 fa bd 3d fc 1e 3f
       -0.13841681 -0.1292256 -0.12244567 0.62103635
0002b0 0d 30 74 3e d3 d6 31 3f 58 cd 03 be 80 3d 69 bd
       0.23846455 0.6946842 -0.12871301 -0.056943417
0002c0 e0 d8 bd be 8a f6 35 3f 48 6d e0 be 0c 6d 1c 3f
       -0.37079525 0.71079314 -0.43833375 0.6110389
0002d0 11 c2 8e 3e 97 87 f0 3d d8 a6 86 bd 73 f4 93 3e
       0.27882436 0.11744612 -0.06574792 0.28897437
0002e0 3d 14 ab be f3 59 f9 bd 6d de d3 3b 8d 67 e7 3e
       -0.33413878 -0.121753596 0.006465724 0.4519619
0002f0 ef 4d bd be 93 f2 56 3e 9e 69 7c be f8 f5 28 3d
       -0.3697352 0.20990972 -0.24649665 0.0412502
000300 e9 5f bd bd 9d cd 34 3e 1c 7a 82 bb ef 3c 5e 3d
       -0.09246809 0.1765656 -0.0039818417 0.05425733
000310 7d 76 9e bc 7f 99 07 bf 3e 5a 1d bd cb 30 08 bf
       -0.019343609 -0.5296859 -0.03841614 -0.5319945
000320 45 0c 97 3e 18 ac c7 bd 60 23 25 3d 32 52 0a bf
       0.29501548 -0.09749621 0.04031694 -0.5403167
000330 ff 75 b9 3d 72 06 28 3e 11 36 83 3e f2 5f 8c 3e
       0.09055709 0.16408709 0.25627187 0.2741695
000340 ae 6c 84 3c 35 ea b8 be ed 26 7f be 3a 6f 14 bf
       0.016165104 -0.36116186 -0.24917193 -0.5798222
000350 2e 4a 58 be 93 ac 9c bd b3 47 cd be 3d 66 66 be
       -0.21122047 -0.076501034 -0.40093765 -0.22499938
000360 b8 d4 87 be bb d8 40 3d 5c d2 ad be 23 e8 98 be
       -0.2652948 0.04708169 -0.33949554 -0.29864606
000370 ea 37 14 3e 33 58 ea bd e6 4c 3c be e8 60 90 be
       0.14474455 -0.11442604 -0.1838871 -0.28198934
000380 31 84 bc 3c c6 fa ae 3c 8d 93 fd bc 0d ae 52 bc
       0.023012253 0.021359812 -0.030954147 -0.01285888
000390 e8 eb 80 bd a8 6e d9 bd f1 0f c8 3d 1e 99 5d bd
       -0.062949955 -0.10616809 0.097686656 -0.054101102
0003a0 c5 46 cb 3d 6f de 17 be e7 7a c6 3d d4 80 e3 38
       0.099256076 -0.14830945 0.096914105 0.000108481996
0003b0 42 4b e9 3c 05 bf 13 3c 39 2f e6 3d 59 8f 14 be
       0.028478269 0.009017711 0.11239476 -0.14507808
0003c0 f4 90 8d bd 43 63 bb bc 00 87 12 be c4 45 42 bb
       -0.06912413 -0.02287448 -0.14309311 -0.0029643634
0003d0 60 e3 84 3e ea a2 ab 3d eb 47 0a be 32 75 1b bd
       0.25954723 0.08380683 -0.13503997 -0.037953563
0003e0 af c7 b2 be df 8b b4 3d b7 a8 25 be 0b bd 2e be
       -0.34917971 0.08815741 -0.16177641 -0.17064302
0003f0 4f 70 c2 bd 02 28 73 bd fd 4c bc bd 7a 80 98 3d
       -0.094940774 -0.059364326 -0.09194372 0.0744638

context_transformer_0/kq_shared_bottleneck/norm/mul;context_transformer_0/kq_shared_bottleneck/norm/add;context_transformer_0/attention/key/einsum/Einsum;context_transformer_0/attention/key/add;context_transformer_0/attention/value/einsum/Einsum;context_transformer_0/attention/key/add/ReadVariableOp/resource f4 [32]
000000 a9 fa f3 3d 3c 7a 1f bd 64 a4 43 3d 1c 57 ff 3d
       0.11913044 -0.03893493 0.047764197 0.12467787
000010 90 0d f5 bd 2f 94 8b bd f0 a9 50 3d fb 78 db bd
       -0.119654775 -0.06815373 0.050943315 -0.107164346
000020 23 e5 1b bb bd 5e d2 bb 83 13 1b 3e 4b 40 5d be
       -0.00237877 -0.006419985 0.15144162 -0.21606557
000030 2b cb 18 3d d3 e8 02 bd e5 cd b5 3d 44 10 42 3e
       0.03730313 -0.03196032 0.08877162 0.18951517
000040 82 ea c0 bd 8a e3 94 3d a3 ce e0 bd 5d d6 d0 bd
       -0.09419729 0.07269962 -0.10976913 -0.101971366
000050 6f 51 bd bd 6a 88 4c 3e 18 9f 07 3e b3 42 23 3e
       -0.09244048 0.19973913 0.13244283 0.15943412
000060 25 14 1a be 39 cd 05 be 49 76 b9 3d fb 07 b2 3d
       -0.15046747 -0.13066567 0.09055764 0.086929284
000070 06 24 14 3e 35 01 17 be a8 a4 e8 bd ec 84 f5 bd
       0.14466867 -0.14746554 -0.11359531 -0.119882435

context_transformer_0/kq_shared_bottleneck/norm/mul;context_transformer_0/kq_shared_bottleneck/norm/add;context_transformer_0/attention/key/einsum/Einsum;context_transformer_0/attention/key/add;context_transformer_0/attention/value/einsum/Einsum;context_transformer_0/attention/key/add/ReadVariableOp/resource1 f4 [32, 32]
000000 48 6c b0 3d 3b 4c d1 bd 68 0b cd 3b 98 61 f8 3d
       0.08614403 -0.10219618 0.0062574632 0.121279895
000010 81 2b ac 3d 7d 54 b7 3c f8 ce 1d 3e ac ad 5a bd
       0.08406735 0.022379154 0.15410984 -0.053388283
000020 2c 50 86 3d 63 d0 67 be 43 59 79 3b cf 46 50 3e
       0.0655826 -0.22638087 0.003804759 0.20339511
000030 f8 27 ac bd 89 b1 db 3e 2f a9 83 3d 26 c7 3d bd
       -0.08406061 0.42908886 0.064287536 -0.0463325
000040 21 3d 0f be e2 ea 80 3c ed 90 22 bc 54 57 65 3c
       -0.13988163 0.015737 -0.009922248 0.013997871
000050 91 67 3f 3c 62 70 52 3c 0c 72 8a bd df 67 38 3d
       0.011682407 0.012844177 -0.06760034 0.045020934
000060 80 83 2b 3e 3c dc 65 3d 85 64 32 be b6 ef 9e 3d
       0.16749382 0.056118235 -0.17421158 0.07760565
000070 47 df b5 3b db 42 5f 3e 96 ac 04 3e 2d 34 2d bd
       0.0055502984 0.21802847 0.12956461 -0.042286087
000080 a7 c9 5b bc 3f c2 d7 3c ef da 1e 3d ff 59 7a bd
       -0.013414777 0.026337741 0.03878301 -0.061120983
000090 4a ea d9 3d 58 54 82 3d 5d 38 28 be 67 96 89 3c
       0.1064039 0.063637435 -0.16427751 0.01679535
0000a0 e8 6a be 3c 92 b8 51 3d da ca 18 bc c7 ca 71 be
       0.023244336 0.05120141 -0.009325707 -0.2361251
0000b0 6a 00 57 3d b6 13 fd bc 05 58 9b 3d 6e 6f b5 3c
       0.05249063 -0.030893188 0.07585148 0.02214786
0000c0 cb e2 ef bd b9 4e 81 bc 75 ec bf bd 82 61 5a 3d
       -0.11713179 -0.015784608 -0.093712725 0.053315647
0000d0 c9 53 a7 3d 47 96 ee bb 72 e9 6f 3d 44 0e 5b 3d
       0.081702776 -0.007281098 0.05857224 0.0534804
0000e0 3d ad 68 be 84 4a 10 be d5 51 0f 3e c5 27 a5 bc
       -0.22722335 -0.14090925 0.1399606 -0.020160565
0000f0 a5 d4 0e bd 84 f4 04 bd e4 2c b9 3d 0f 0b b7 bc
       -0.034870762 -0.03245975 0.09041765 -0.02234414
000100 1a 6d 3a be 71 c6 fb 3d fb 01 49 be 6e d5 25 bd
       -0.18205681 0.12293709 -0.19629662 -0.040486746
000110 a4 65 00 be 2b 33 58 be fb c1 a3 3d fb 52 20 be
       -0.12538773 -0.21113269 0.07995983 -0.15656655
000120 70 ed 63 be 1b c4 6d 3d 36 29 24 be ef 9e f0 3d
       -0.22258544 0.05804835 -0.16031346 0.11749064
000130 64 c2 1f bd 7b 85 99 be 6c f4 81 be c7 d7 10 3e
       -0.039003745 -0.2998465 -0.25381792 0.14144813
000140 f1 55 cb 3d 2b 14 fe 3d 58 14 a9 bd 73 72 28 be
       0.099285014 0.124061905 -0.082558334 -0.16449909
000150 58 c4 78 be 58 87 22 be eb 8a 46 3c 08 70 cb 3d
       -0.24293649 -0.15871942 0.012118082 0.09933478
000160 0a f1 0c 3e ba 88 1e 3e 48 ec fa bc d2 02 b4 3d
       0.13763824 0.15481845 -0.030630246 0.087896004
000170 5d b4 04 be a7 ab 23 bd e3 2a ad bc 44 19 11 3e
       -0.12959428 -0.039958622 -0.021138614 0.14169794
000180 db 1d 70 3d f0 5e 89 bd 0b f8 06 bc 21 c5 b1 3d
       0.058622222 -0.06707561 -0.008237849 0.086801775
000190 66 67 ab 3d 53 d0 57 3d d1 8e 42 3e 91 30 b6 bc
       0.08369331 0.052688908 0.18999793 -0.022239955
0001a0 d0 10 0b 3c e9 18 5b be 73 ea 35 3c 04 7d 76 3e
       0.008487895 -0.21396221 0.01110326 0.24071127
0001b0 09 eb d5 bd 6d 5f 8b 3e 13 9d b6 bc 64 ac 8a bc
       -0.1044522 0.27221242 -0.022291696 -0.016927905
0001c0 eb 19 30 be 6d 6e cc 3c b4 29 96 3c 87 00 27 3d
       -0.17197387 0.024954999 0.018330432 0.040771987
0001d0 ce 88 93 3d 5e 32 ce 3b 26 fa 7f bd 5e ac b0 bc
       0.07203828 0.0062926253 -0.06249442 -0.021566566
0001e0 1c 52 1e 3e 56 55 80 3d 1e ad c9 bd e7 ee 75 3d
       0.1546101 0.062662765 -0.098474726 0.06004229
0001f0 eb 74 1c bc d1 5f 64 3e c9 24 d8 3d 56 84 86 bd
       -0.00954936 0.22302176 0.10553891 -0.0656821
000200 11 89 18 be ae 41 7b 3c 0d 9f 62 bd 30 40 d3 bd
       -0.14896037 0.0153354835 -0.055327464 -0.10314977
000210 49 82 09 be 1f b5 af bb 2d 22 af bd d8 cd 17 3d
       -0.13428606 -0.0053621675 -0.085514404 0.037061542
000220 cf 35 a6 bd ab af 98 3e af e1 77 bb 2d 69 09 be
       -0.08115732 0.29821524 -0.0037823727 -0.13419028
000230 29 b4 6d 3d 04 2b 15 bf 71 c5 cd bd 44 66 c1 3d
       0.058033142 -0.5826876 -0.100474246 0.09443334
000240 bd 27 c5 3d 9c 92 29 bc 4c 4e c0 3c b5 2d fd 3d
       0.0962672 -0.010349896 0.023474835 0.123622335
000250 95 f1 27 bd 86 91 43 bd fa 89 eb 3c cb ad 2b 3d
       -0.041001875 -0.047746204 0.028752316 0.04191379
000260 8f f8 12 be e5 ba 1f be 62 a7 2c 3e a0 a8 0a be
       -0.1435263 -0.15598638 0.16860726 -0.13540888
000270 06 71 73 3d 8c 28 32 be 71 d6 0d be 45 dd 80 bd
       0.05943396 -0.1739828 -0.13851334 -0.06292204
000280 17 f3 49 3d fe 24 0a be 67 86 e6 3d 6e 17 52 3d
       0.049304094 -0.13490674 0.11256104 0.051291876
000290 7d 15 a9 3d a4 c7 55 3e 39 3e fd bd 33 ed 14 3e
       0.08256052 0.20876938 -0.12365384 0.1454361
0002a0 7e e1 31 3e 61 72 2d 3d f8 a3 09 3e d8 32 b5 bd
       0.17371175 0.04234541 0.13441455 -0.08847588
0002b0 2f 21 63 3d e2 c9 76 bd 03 55 12 3e 5b 32 21 bd
       0.05545157 -0.060251124 0.14290242 -0.039354663
0002c0 35 75 1b be aa ba 03 be 33 1f e3 3d 01 c2 50 3e
       -0.1518143 -0.12864175 0.11089935 0.20386507
0002d0 f2 89 6c 3e 07 60 03 3e f6 e8 24 bc 7e 07 71 bd
       0.23099497 0.128296 -0.010065308 -0.058845036
0002e0 e0 c6 33 be 3d 8f 72 be 78 b4 d6 3d 3a 0b 1d be
       -0.17556334 -0.23687454 0.104836404 -0.15336314
0002f0 23 0a 04 3e bb eb a1 3d b3 d5 b8 3c 30 ce 51 be
       0.12894492 0.0790629 0.022562837 -0.2048881
000300 2b 41 8f bc 53 c5 44 3d 09 fc 7f bd 9f ff 4e 3c
       -0.01748713 0.048039746 -0.06249622 0.012634187
000310 a6 d7 7a bd 6f 9d ce bd 48 60 c8 3d 79 aa 75 bd
       -0.061240815 -0.10088622 0.09783989 -0.05997703
000320 99 6e d2 bd c1 d3 b4 bd ed a8 26 bd de dc 0b 3e
       -0.10275001 -0.08829451 -0.040688444 0.13658473
000330 f6 8e 89 bd 13 26 e4 3d 4e 9d de bd 43 54 64 3c
       -0.06716721 0.111400746 -0.10869847 0.013936105
000340 34 94 fc 3d 02 f8 62 3d 02 46 12 bd fa e0 18 be
       0.12332955 0.0554123 -0.035711296 -0.14929572
000350 d7 07 11 be 30 ff ac bd 3a 00 ad bc d7 ac e8 3c
       -0.14163147 -0.08447111 -0.021118272 0.028402729
000360 24 2f 52 3e 4a 66 57 3e 1e bd 16 be 8a 83 e1 3d
       0.20525795 0.21035114 -0.1472058 0.11011417
000370 92 cf d8 bd e6 b5 8d bd 36 f1 07 bc dd 36 ff 3d
       -0.10586466 -0.0691946 -0.008297255 0.12461636
000380 a3 70 8e bc 7c ff ca bd d5 48 07 3c fb b8 b1 bd
       -0.017387694 -0.09912011 0.008257111 -0.0867786
000390 67 ee e7 bd 5f bc 9c bb 96 8b 60 be 76 9c 51 be
       -0.113247685 -0.004783198 -0.21928248 -0.20469841
0003a0 f9 4f ea bd c4 c6 7e be a6 98 fb bd 4e de 60 be
       -0.11441035 -0.2488051 -0.12284975 -0.21959803
0003b0 c2 3b 86 3d 8e bc 54 3e 94 20 c5 3c 0a 0d 9d 3d
       0.06554367 0.20775053 0.024063386 0.07668503
0003c0 b9 a7 3c 3c 40 9c 00 bd 6b e5 c4 bd 89 d2 7a bd
       0.011514598 -0.03139901 -0.096140705 -0.06123594
0003d0 da d9 39 bd 05 50 32 bd 44 d2 b1 3d dc 54 b1 3d
       -0.045373775 -0.043533344 0.08682683 0.08658764
0003e0 6c 67 2e be fc c4 74 bd 95 0d 80 3d c6 83 84 3d
       -0.1703164 -0.05975817 0.062525906 0.06470446
0003f0 bb 20 6b bd 5d d8 90 be 2c ff c3 3d 32 29 18 3d
       -0.05740426 -0.28290072 0.095701545 0.037148662

context_transformer_0/kq_shared_bottleneck/norm/mul;context_transformer_0/kq_shared_bottleneck/norm/add;context_transformer_0/attention/query/einsum/Einsum;context_transformer_0/attention/query/add;context_transformer_0/attention/value/einsum/Einsum;context_transformer_0/attention/query/add/ReadVariableOp/resource;context_transformer_0/attention/Mul;context_transformer_0/attention/Mul/y f4 [32]
000000 6d 4e 94 bd 79 93 01 3d 73 bd 13 3c ec 0d 30 bd
       -0.07241521 0.03163478 0.009017336 -0.042982027
000010 ca c9 eb 3d 6b 19 98 3c 2b 81 cd bc cd 4d bb 3d
       0.115130976 0.018566808 -0.025086006 0.09145699
000020 72 a1 0b be 66 ac b1 bd 6a 1a 43 be d3 53 73 3e
       -0.13635805 -0.086754605 -0.19053045 0.23762445
000030 89 b9 11 3e e4 c6 0c be a4 0a 1b 3e eb b3 0b be
       0.14230932 -0.13747746 0.15140778 -0.13642852
000040 35 65 54 3e 5d 5e b1 3c 9b 66 bf bd 60 f9 8e bd
       0.20741732 0.021651441 -0.09345742 -0.06981158
000050 0c 43 b2 bd 09 27 91 be 3e 90 bc 3d dc f9 c6 3d
       -0.087041944 -0.28350094 0.092071995 0.09715626
000060 81 40 05 bd 5e 9d 88 bc c0 1c aa 3d 91 df 6d 3c
       -0.03253222 -0.016676601 0.08306265 0.014518634
000070 02 34 da 3c 05 91 37 3e a1 0a 36 3d 15 ce 03 3d
       0.026636127 0.17926414 0.04444373 0.032178957

context_transformer_0/kq_shared_bottleneck/norm/mul;context_transformer_0/kq_shared_bottleneck/norm/add;context_transformer_0/attention/query/einsum/Einsum;context_transformer_0/attention/query/add;context_transformer_0/attention/value/einsum/Einsum;context_transformer_0/attention/query/add/ReadVariableOp/resource;context_transformer_0/attention/Mul;context_transformer_0/attention/Mul/y1 f4 [32, 32]
000000 2b 68 2f bd 81 b1 fe bc 95 85 2a bd 9d 87 82 3a
       -0.04282395 -0.0310905 -0.0416313 0.0009958629
000010 09 bc ff 3d bc 47 96 3c d7 35 60 bd aa 95 98 bc
       0.12487037 0.018344752 -0.054738846 -0.018626053
000020 8f 94 c0 bc ac 08 5c bd 05 09 46 bc cf 58 85 bd
       -0.023508338 -0.053719208 -0.012087111 -0.065110795
000030 cd bb d7 3b b0 ce db bc 08 96 cb bc b1 8f 02 3d
       0.006583667 -0.026831955 -0.024851814 0.031875316
000040 8b 67 90 3d d5 38 e7 bc ce 94 a9 bb 39 a4 c8 3c
       0.07050999 -0.028225342 -0.0051752096 0.02449237
000050 47 66 fa 3c e5 26 45 bb 6c 0e a6 bc 4f 26 fe 3c
       0.030566348 -0.0030082997 -0.020270549 0.031024126
000060 41 10 ba bd 49 ff 98 bc 47 22 04 3d 46 d4 a3 bc
       -0.090851314 -0.018676417 0.032259252 -0.01999868
000070 69 37 c6 3c 1e 4d c0 bd 01 d1 10 3d da 03 ee bc
       0.024196343 -0.09389709 0.03535557 -0.029054571
000080 e6 d8 f2 3c 76 30 05 bd 4e 81 b6 3c fd e3 bd 3c
       0.02964444 -0.03251692 0.022278454 0.023180002
000090 78 33 8e bb 7b 62 49 3b db 1b 86 bc 1c 19 0f 3c
       -0.0043396316 0.0030728865 -0.016370704 0.008734014
0000a0 3c 2b ab 3c 57 ff 23 bd fa 9f 27 3b 16 cd ca 3c
       0.02089464 -0.040038433 0.0025577531 0.024755996
0000b0 cb 77 13 bc 9a 1c bd 3d 95 4f 88 3c 60 ca e4 bc
       -0.009000729 0.09233971 0.01663951 -0.027928531
0000c0 f3 45 89 bd 50 64 d5 bc 07 68 37 3c 8c 77 51 3c
       -0.06702795 -0.02604881 0.011194236 0.01278485
0000d0 f6 9d 0f 3b 4a 59 6a 3b 64 b3 5a bc aa 6b fa bb
       0.002191422 0.0035758787 -0.013348434 -0.007642229
0000e0 09 88 76 bc c2 48 a5 bd 12 51 11 bd 1b 25 4a bd
       -0.015047082 -0.08070518 -0.035477705 -0.049351793
0000f0 7f 56 1d 3c 43 ba b6 3d 35 c0 d8 3c d0 22 94 bc
       0.009603142 0.08922245 0.026458839 -0.018083006
000100 2a 13 b3 3c 02 73 9f 3d c3 33 cf 3c 98 e3 a7 bd
       0.021859724 0.07785608 0.025293237 -0.08197707
000110 e9 9d 5c 3d 4e f7 9a bc 75 fe 82 3b 6d 47 ca 3c
       0.053861532 -0.018916752 0.003997619 0.024692262
000120 22 d6 ba 3c 44 0a 60 ba 84 12 bc 3c 7f bc 85 bd
       0.022807185 -0.00085464516 0.022958048 -0.065300934
000130 67 c4 d8 3c 22 4b bb bd bd fb 6f 3c 91 35 3a bc
       0.02646084 -0.0914519 0.014647421 -0.01136531
000140 1f 04 03 3e 48 3f 13 3b 9b ad a1 3c 02 a0 27 bd
       0.12794541 0.0022468138 0.019736102 -0.04092408
000150 77 c9 b2 bc 98 7f 19 3c 14 97 86 3d 95 c6 17 bd
       -0.021824582 0.0093688 0.065717846 -0.037054617
000160 db ed 88 ba e8 a6 8b 3d 5d d3 e2 3d 5c 5f 18 3c
       -0.0010446863 0.06818944 0.110754706 0.009300079
000170 22 bf 9b bc 3a 3b c4 bd a9 95 a7 bc 1c ef 4f 3d
       -0.019012038 -0.09581609 -0.020457106 0.05076514
000180 70 1b 34 bd f1 8c f8 bc a7 30 54 bd 1b b1 39 3c
       -0.04397148 -0.030340644 -0.05180421 0.011333729
000190 d6 ef 06 3e 3e 8f 49 3b 72 d3 e7 bc 4b a4 14 bd
       0.13177428 0.0030755545 -0.028299067 -0.036289494
0001a0 cb 16 2d bd 31 71 96 bb 68 a0 76 bc a7 d7 28 bd
       -0.042258065 -0.00459113 -0.015052892 -0.041221287
0001b0 71 57 c3 bb ae 25 3f bd 57 19 61 3c 9a 9a 45 3d
       -0.0059613516 -0.046666794 0.013738952 0.048243143
0001c0 4d 57 88 3d 46 89 3e 3c 10 32 b6 bb 29 05 23 3c
       0.06657276 0.011629408 -0.005560167 0.009949961
0001d0 59 be 49 b9 ee f0 60 bc ce 59 d4 bb 52 b0 04 3d
       -0.00019239764 -0.013729317 -0.006480432 0.032394715
0001e0 32 cd 40 bd fb 88 8b bc f5 f6 11 3d 4d 7d 31 bb
       -0.04707069 -0.01703309 0.035635907 -0.0027082742
0001f0 72 79 71 3a 30 cf 98 bd a5 8d 2e 3c 27 a2 ca bb
       0.0009211517 -0.07461393 0.010653888 -0.006183881
000200 a7 5b a9 3c 22 c2 52 3d 81 84 d3 3b 6c aa 72 bc
       0.020673586 0.05145467 0.0064550047 -0.01481114
000210 11 e0 55 bd fc ff 21 bd a7 18 bf 3d 17 ee 12 3c
       -0.05221564 -0.039550766 0.09330874 0.008967898
000220 59 88 ab 3b f7 5b c6 3c 6e 09 02 bc 4a 77 5f 3d
       0.0052347598 0.024213774 -0.0079368185 0.054557122
000230 e4 ed 1f bd dd 65 74 3d 40 26 51 bd 46 ea 85 bc
       -0.03904523 0.059667457 -0.05106187 -0.016347062
000240 c9 b6 48 bd 90 e8 6d 3d 07 5d a1 bc 71 38 21 bd
       -0.049002443 0.058083117 -0.01969768 -0.039360467
000250 87 7d 25 bd 91 fe 04 bd 8e 0e 9f 3c b0 40 64 bc
       -0.040402915 -0.032469336 0.01941612 -0.013931438
000260 19 9b f3 3d e7 52 a7 3d 81 ba b4 bc 6f fa 75 3d
       0.11894817 0.08170109 -0.022061588 0.060053285
000270 bc 16 26 bd ac 76 b2 3d fb e2 0e 3d 76 63 2c 3d
       -0.040549025 0.08714041 0.034884434 0.04208704
000280 1c 6d da bc e0 87 4f bd 85 d2 44 bd 9d dd 9f 3d
       -0.026663356 -0.05066669 -0.04805233 0.07805941
000290 bf eb f4 bc 1c 3a 37 bc c2 17 d9 3c a0 a2 10 bd
       -0.029897569 -0.011183288 0.026500586 -0.03531134
0002a0 91 88 06 bd 80 91 d6 bc b7 01 1d bd b6 e2 8f 3d
       -0.032845084 -0.026192427 -0.038331714 0.070256636
0002b0 9d ec 20 bd e5 7a 00 3e dc 69 cb bc b8 94 c9 3c
       -0.039288152 0.1254688 -0.024830751 0.024607047
0002c0 75 d8 fd bd ea 74 6f 3c 32 35 d8 bc 25 94 aa 3c
       -0.123948015 0.014615277 -0.026392553 0.020822594
0002d0 e8 f9 35 3b cc fa b9 bc 91 94 5b bd 31 ab 32 3d
       0.0027767364 -0.022702597 -0.05360848 0.043620292
0002e0 66 c8 ff 3c 0f 6d 0c bd 79 63 aa bd 46 bc 6b 3c
       0.031223487 -0.034283694 -0.08319754 0.01438815
0002f0 b6 48 b4 bc 83 d1 ff 3d 13 61 0e 3d 8f cc 9d bc
       -0.022007328 0.12491133 0.034760546 -0.01926258
000300 89 5c 3b 3c 65 09 ea 3c 51 45 71 3c 70 96 61 bd
       0.011435636 0.028568933 0.014725999 -0.05507511
000310 36 e3 59 3d 90 66 21 3b 69 e3 95 bc 67 0a e3 3c
       0.0531952 0.0024627782 -0.018296914 0.027714921
000320 43 4d c6 3c be 16 23 3a 7c 09 b0 3c ad a7 87 bd
       0.024206763 0.00062213454 0.021488898 -0.066237785
000330 0d 61 97 3c 1d b9 d1 bd 7a 7c 32 3b 32 76 9c 3b
       0.018478895 -0.10240386 0.0027234838 0.004774832
000340 41 b8 d0 3d 89 95 9c bb 9d 15 68 3c 81 90 b0 bc
       0.10191394 -0.004778568 0.014165309 -0.02155328
000350 e2 59 8b 3b 6d 9e af 3c 2a df da 3c 36 8e bc bc
       0.004252658 0.021437848 0.026717741 -0.02301703
000360 8a 0e f7 bc 9d 1c 2f 3d 48 db 91 3d 65 b5 0c bc
       -0.0301583 0.042751897 0.07121903 -0.00858817
000370 1d c6 05 3c 7a ce d8 bd 30 e5 c1 bc eb 46 56 3c
       0.00816491 -0.10586257 -0.023668855 0.013078432
000380 04 93 68 3d 0b 49 21 3d de ac 38 3d 68 50 80 bd
       0.05678083 0.0393763 0.045086734 -0.06265336
000390 75 02 fd 3d 17 2e 78 3c e0 0d 01 bd 16 8e 79 3d
       0.12353984 0.015147707 -0.031507373 0.06092652
0003a0 65 60 95 3d 66 fa 93 3d fb 60 74 3c 99 12 8c bd
       0.072937764 0.07225494 0.0149157 -0.06839485
0003b0 4e c8 3d 3b 67 e2 2b 3e 91 08 8d 3c 88 a2 2b bd
       0.0028958502 0.16785584 0.017215999 -0.04190305
0003c0 8a b6 0b bb 60 30 65 bc 1a 9d 3d 3d a8 34 5e bc
       -0.0021318519 -0.013988584 0.0462924 -0.013562359
0003d0 60 65 24 3c d3 d6 67 3c 92 a9 6a 3d fa 34 6e bd
       0.010033935 0.014150339 0.05729062 -0.05815599
0003e0 7c 3a 86 3b d5 7c f1 bc ea bb 64 3d 4e 88 99 bd
       0.0040963273 -0.02947847 0.05584327 -0.07496701
0003f0 46 e7 a3 3c 6f d8 b7 3b fc ac 7a 3d 48 fc 8e 3c
       0.02000774 0.0056105177 0.061200127 0.017454281

context_transformer_0/ffn_layer_0/intermediate_dense/einsum/Einsum;context_transformer_0/ffn_layer_0/intermediate_dense/Relu;context_transformer_0/ffn_layer_0/intermediate_dense/add f4 [32]
000000 4f 2c 81 be 81 0e ea be 3b 19 ee be b7 5d b3 be
       -0.25229117 -0.4571419 -0.46503624 -0.35032436
000010 92 2d dc bd aa 16 fb be f2 10 bd be 06 5f 63 bb
       -0.10750879 -0.4904073 -0.3692699 -0.003469409
000020 cb 7b a3 be 73 4a 09 bf 2b fa b1 be ef 4c 92 be
       -0.31930384 -0.53629225 -0.34761176 -0.2857432
000030 60 c8 5f be ab 4c 37 be 1e 34 94 be f4 2a b8 be
       -0.21853781 -0.1790034 -0.28946012 -0.3597027
000040 06 56 f5 be 2d e5 d8 be f4 cf 0e bf 33 25 ac be
       -0.47917193 -0.42362347 -0.5578606 -0.3362213
000050 9c 3c 20 be 08 6a 90 be 29 3f 12 be 36 49 31 be
       -0.1564812 -0.28205895 -0.14281906 -0.17313084
000060 89 f5 af bd 0b be b3 be 84 d2 01 bf 12 56 fa bd
       -0.08591754 -0.3510593 -0.50711846 -0.12223448
000070 50 44 89 be 2b 0a cf be 8d 9a 9e be fd c6 d4 be
       -0.2680993 -0.40437445 -0.30977288 -0.41558066

context_transformer_0/attention/norm/mul;context_transformer_0/attention/norm/add;context_transformer_0/ffn_layer_0/intermediate_dense/einsum/Einsum;context_transformer_0/ffn_layer_0/intermediate_dense/Relu;context_transformer_0/ffn_layer_0/intermediate_dense/add f4 [32, 32]
000000 56 cc ca bd dc 9f 6c 3d 33 ec 5d 3e bb 3c b2 bd
       -0.09902255 0.05776964 0.21672134 -0.0870299
000010 01 5d 0c 3e f1 66 6f 3e 95 5e 8a bd a5 ab 39 3e
       0.13707353 0.23379113 -0.06756321 0.18131883
000020 2a 65 df 3d dc 57 ca 3e 9d c9 12 3e bd 89 a0 bd
       0.109079674 0.39520156 0.14334722 -0.078387715
000030 b8 6c 36 3e 91 67 c8 bd 03 be f4 3d 97 b8 4b 3e
       0.1781491 -0.09785379 0.11950304 0.19894634
000040 06 9b 1e 3e 80 ba b6 3d f2 34 84 bc 73 23 9d bd
       0.15488824 0.08922291 -0.016138528 -0.07672777
000050 87 34 b7 bd 6b 61 9e be 75 33 72 3e 95 13 bd 3d
       -0.08945566 -0.309337 0.23652442 0.092322506
000060 39 d7 a4 3e fb a1 9b 3d af 5f 82 3d c1 03 2a be
       0.32195452 0.07599255 0.063659064 -0.16602995
000070 b8 82 9f be f8 64 56 3c 84 4d b7 be 5d 2a f2 3d
       -0.31154418 0.013085596 -0.35801327 0.118244864
000080 d8 4d 0a 3d 95 f5 0b 3d 14 7b 82 3d 81 23 38 bd
       0.033765644 0.034169752 0.063711315 -0.044955734
000090 ec 03 67 bd dd ee 10 be 3d 07 87 3c 7e 68 9f 3e
       -0.056400225 -0.14153619 0.016482944 0.3113441
0000a0 f5 be 63 be e5 c8 1a 3e 01 6d e4 3d f0 29 0c 3e
       -0.22240813 0.15115698 0.11153603 0.13687873
0000b0 13 e0 81 3e b4 76 44 bc 05 2b 8e bc 40 e4 2a 3e
       0.25366268 -0.011991192 -0.017354498 0.16688633
0000c0 4f f6 68 3e 22 57 1e 3e f7 57 1d be 32 8b 92 bc
       0.2275021 0.15462926 -0.15365587 -0.01788864
0000d0 44 0e 9f 3e 17 5c 2a bd 9a 40 41 3d a1 e4 2f 3d
       0.3106557 -0.04159173 0.04718075 0.042942647
0000e0 b9 2e 8f 3d f2 bf 69 3d 63 d4 a1 3c 5b 3b 17 3e
       0.069913335 0.05706782 0.019754594 0.14768736
0000f0 c0 f0 17 be b1 57 33 3e c8 04 80 be 55 d2 23 3d
       -0.14837933 0.1751392 -0.25003648 0.03999551
000100 80 b6 1b bd 3b 52 05 be b2 e7 9a be e7 1e 85 be
       -0.038015842 -0.1301965 -0.30254894 -0.2600014
000110 c5 6a d9 bd e4 f7 56 3e 24 bd a7 3d 73 e5 d8 3d
       -0.10616068 0.20993 0.081903726 0.10590639
000120 3e fd 25 bb db 88 02 3e 87 7b 80 3e 86 f9 17 be
       -0.0025327946 0.12747519 0.25094244 -0.1484128
000130 b3 bf 6f 3c bf 1d f4 3d c4 26 20 be 00 92 d3 3d
       0.014633107 0.11919736 -0.15639788 0.10330582
000140 43 c8 8b 3d 9e 59 59 3d e3 b1 b3 3d 79 76 10 3e
       0.06825306 0.05306398 0.087741636 0.14107694
000150 30 3d b0 3e 25 f6 a0 3d dc 2b 55 be 6a 91 05 3e
       0.34421682 0.07859448 -0.20817512 0.13043752
000160 ec b6 8c 3d 23 ae 3a 3b ab 00 6f bc 34 1f 40 3e
       0.06870827 0.0028485141 -0.014587562 0.18761903
000170 d6 96 24 be c4 c5 a1 bd eb 27 c6 bd 2d 41 b8 bd
       -0.16073164 -0.07899049 -0.096755825 -0.08996806
000180 0e b1 7e bd 35 9a df 3d 33 07 a6 bd f4 5a 57 bd
       -0.06218057 0.109180845 -0.08106842 -0.052576974
000190 ea 5b c7 bc fa 2d a4 be a3 10 84 3d 87 9e 9d 3e
       -0.02433582 -0.32066327 0.06448486 0.3078501
0001a0 34 47 27 3e 03 10 f2 bc cb 20 ff bc 1c b0 c7 3d
       0.16335756 -0.02954865 -0.031143567 0.09750387
0001b0 81 e8 5a 3e b6 a0 62 bd 60 90 9e 3d 88 77 42 bb
       0.21377756 -0.055329047 0.07742381 -0.0029673297
0001c0 8e 17 5a 3e e6 6a 03 3e da 78 c8 be 1a b4 71 bd
       0.21298048 0.12833747 -0.39154702 -0.05900965
0001d0 44 8c 57 be c3 e2 fe 3d b1 2d 91 bc f4 73 24 3d
       -0.21049601 0.12445595 -0.017721983 0.040149644
0001e0 6c ad 11 3e b6 b5 23 bc 63 95 6f 3e 27 54 67 bd
       0.14226311 -0.009992054 0.2339683 -0.05647674
0001f0 43 00 c2 bc 69 28 55 3e 11 9c 20 be 39 08 19 be
       -0.023681765 0.20816197 -0.15684535 -0.14944543
000200 11 59 4c 3d 66 43 bd 3c 64 7e 22 3e ed 66 5f bc
       0.049889628 0.023103427 0.15868527 -0.013635379
000210 a6 c4 9c bd fe 13 e0 3d e8 44 cc bd fc 96 84 3c
       -0.07654695 0.10941313 -0.0997408 0.016185276
000220 00 07 85 3d 58 6e 35 3e df 8f 96 bd 24 f0 ab be
       0.06495476 0.17717874 -0.0735166 -0.3358165
000230 30 87 ac 3e 93 28 17 3e 39 98 14 3e c1 d8 5a 3d
       0.3369689 0.14761572 0.14511193 0.05342937
000240 32 85 82 3e 5b 64 be bd 72 9b 92 be 4d bc 1b 3e
       0.25492245 -0.09296485 -0.2863422 0.1520855
000250 15 99 fc bc 36 f5 80 bd 50 a6 11 3c 2f b2 68 bc
       -0.030834714 -0.0629677 0.00888975 -0.0142026385
000260 44 93 f1 3d 03 6a 1b 3c ad 83 cf 3d 9b 0b 2c be
       0.11795667 0.009485724 0.10132537 -0.16801302
000270 60 91 bc bc e7 06 21 bd d6 61 78 be 54 1c 35 bd
       -0.023018539 -0.039313223 -0.24256071 -0.04421647
000280 27 4b 59 bd 94 77 0c 3d 97 59 a4 bc 5a 6b 03 be
       -0.053050186 0.034293726 -0.020062251 -0.1283392
000290 18 55 ec 3c f0 70 a8 be 84 f0 2c 3d 2f 94 a5 3e
       0.02884917 -0.32898664 0.04222156 0.32339618
0002a0 15 20 1f be c0 d5 57 3c 3e b1 87 bd 28 5f 53 3e
       -0.15539582 0.013173521 -0.06625603 0.20641768
0002b0 5d 3d 4e 3e 0a cb 06 be da 97 d0 bc 43 94 90 bc
       0.20140596 -0.13163391 -0.025463033 -0.017648822
0002c0 ec 3a 19 3e ed 04 01 3e f6 04 ef be a0 04 c4 bd
       0.14963883 0.12599535 -0.46683472 -0.09571195
0002d0 47 d1 61 3d 0f 9e 86 3e 84 24 5c bd 50 91 7e 3d
       0.055131223 0.26292464 -0.05374576 0.0621503
0002e0 96 63 59 3e a2 75 28 3d 97 e2 cf 3d 50 d3 fb bc
       0.21229395 0.04112781 0.101506405 -0.03074041
0002f0 d7 65 97 bd 9d dc 47 3e dd b3 e1 bd 09 e8 d9 bd
       -0.07392471 0.19517751 -0.11020634 -0.1063996
000300 c3 9d 89 bd fc cf af bd fc a0 40 3c 85 b1 ea bc
       -0.06719544 -0.08584592 0.011757132 -0.028649101
000310 14 d3 c5 3a a6 29 f1 3d 7b cc 9f 3d ef 0f 2c 3e
       0.0015092813 0.11775522 0.078026734 0.16802953
000320 09 f5 ee 3d 94 f4 13 3e 37 46 f3 3d bc ef 27 be
       0.116678305 0.14448768 0.11878627 -0.16400045
000330 44 66 f1 3d 49 6f b3 3d ec 94 64 3c 58 c1 db 3b
       0.11787084 0.0876146 0.013951521 0.006706398
000340 e2 0e 20 3e b2 67 c9 3d 32 85 54 bd ae 4a cd bd
       0.15630677 0.098342314 -0.051884837 -0.1002401
000350 fe 41 dc bb 91 7d 0c bd a1 0b 43 be 00 96 07 3c
       -0.006721734 -0.034299437 -0.19047405 0.008275509
000360 3e e9 a2 3d dd 9b 1e 3d 87 48 42 3e 6e 10 ff 3d
       0.07954644 0.03872286 0.1897298 0.124543056
000370 91 ea 10 be 7a 32 89 bd 24 94 71 be cd 1e fe 3d
       -0.1415198 -0.06699081 -0.23591667 0.124082185
000380 f1 ec 34 be a2 37 89 3c fa 5c d3 bb d5 dd 17 be
       -0.17668511 0.01675016 -0.0064502927 -0.14830716
000390 11 0a 16 bd e8 c2 d7 bd 34 bf d6 bb 21 bd 0f 3d
       -0.036630694 -0.10535222 -0.006553555 0.035092477
0003a0 ee c4 34 3a 6b bb dc 3d 2c 7d 0c be e3 14 19 be
       0.00068958 0.10777935 -0.13719624 -0.14949374
0003b0 ce f0 9b 3e b8 76 81 3e 54 d2 87 3d fa 8f 26 be
       0.30457157 0.25285888 0.06631914 -0.1626586
0003c0 37 53 1a 3e 59 1d 2f 3e 13 eb aa 3c e7 9a bd bc
       0.15070806 0.17101039 0.020864045 -0.023145152
0003d0 2b 2b 35 bd c9 ed fb 3c b7 6c 42 be 9c 26 bc bd
       -0.04423062 0.030753033 -0.18986784 -0.09187052
0003e0 e7 3e 1e 3e 7a ae 5e 3e 3d 43 fc 3c f4 6d 3c 3c
       0.15453683 0.21746245 0.03079378 0.011500824
0003f0 52 94 cd bd ac ef 2b 3e ce 07 b8 be 22 e3 90 3e
       -0.100380555 0.16790646 -0.35943455 0.2829829

context_transformer_0/ffn_layer_1/intermediate_dense/einsum/Einsum;context_transformer_0/ffn_layer_1/intermediate_dense/Relu;context_transformer_0/ffn_layer_1/intermediate_dense/add f4 [32]
000000 92 f1 69 be 78 45 79 be 60 45 bb be 40 0a 35 be
       -0.22846058 -0.24342906 -0.36576366 -0.17679691
000010 97 60 d8 be c2 dd dd bd d8 8d 3e 3d 81 73 8f be
       -0.42261192 -0.108333126 0.04652199 -0.2801781
000020 a3 7f 89 be 52 cb 75 be c0 c1 4a be cf 53 d3 be
       -0.26855192 -0.24003342 -0.19800472 -0.41274878
000030 1b b5 9e be b1 9d 80 3d cc b6 7f bd 75 72 0d be
       -0.30997548 0.06280077 -0.062430188 -0.13813193
000040 8c ae c5 be 5d af 0f be af 93 85 be 43 07 3e 3d
       -0.3860973 -0.1403174 -0.26089236 0.046393644
000050 3f 62 e7 bd 85 8c 93 bd 7f 72 f9 be 17 ea 95 be
       -0.11298036 -0.07204536 -0.48720166 -0.2928016
000060 c9 f0 f4 be 12 35 13 be 40 5b ec be fc ce b0 3c
       -0.47839954 -0.14375713 -0.46163368 0.021583073
000070 c2 80 17 be 60 86 b4 bd 5c c7 b1 be a8 7a 91 bd
       -0.14795211 -0.088146925 -0.34722412 -0.07103473

context_transformer_0/ffn_layer_0/norm/mul;context_transformer_0/ffn_layer_0/norm/add;context_transformer_0/ffn_layer_1/intermediate_dense/einsum/Einsum;context_transformer_0/ffn_layer_1/intermediate_dense/Relu;context_transformer_0/ffn_layer_1/intermediate_dense/add f4 [32, 32]
000000 13 e9 06 3e c4 a9 b0 bd cf 6d dc 3c 15 28 3f 3d
       0.13174848 -0.0862613 0.02690783 0.046669085
000010 71 a4 05 3c 4d 66 15 be 91 3e 60 bd de db 94 3a
       0.008156882 -0.14589806 -0.054747168 0.001135703
000020 c5 f2 12 3d 24 69 c2 bd 98 06 0b 3b 07 67 13 be
       0.035876054 -0.0949271 0.0021213647 -0.1439477
000030 f9 da 9d 3e 91 55 12 be cb 77 dc 3d 73 58 c2 3d
       0.30831125 -0.14290453 0.10765036 0.094895266
000040 da 4b 28 3d a3 98 c6 bb 84 7a 03 be 6f 03 dd 3d
       0.041087963 -0.006060676 -0.12839705 0.107916705
000050 83 1e 3c be f4 d8 94 3e 22 09 ad 3d 7c 12 ea bc
       -0.18371014 0.29071772 0.084490076 -0.028573267
000060 2f 41 dc b9 c6 28 86 bd b9 2c a3 3e 2b 63 a6 bd
       -0.00042010235 -0.06550746 0.31870058 -0.081243835
000070 4a 5e 24 3d 6a b0 99 3c f2 ff fa 3b 51 95 b1 3d
       0.040128984 0.018760879 0.0076599056 0.08671058
000080 9c 72 5e 3d 88 ca 00 3e 11 fe 5c 3e 4e 5e 2b be
       0.05430852 0.1257726 0.21581294 -0.16735193
000090 1a b3 ac 3d 90 29 e4 bd 4a e4 cb bc d1 ba 17 3e
       0.084325984 -0.1114074 -0.02488913 0.14817359
0000a0 ae 6d 24 3d 29 a0 f9 3d b7 47 3c bd 22 b9 c6 bd
       0.04014366 0.12188751 -0.04596683 -0.0970328
0000b0 36 59 c9 3e 5d 47 d3 bd 44 f8 ff 3d 09 96 cb 3d
       0.39325875 -0.10316346 0.12498525 0.09940726
0000c0 bd 11 ed bc 3e 9e 62 3e 61 8c 81 bb 7e 5b 92 bb
       -0.028939122 0.22130677 -0.003953502 -0.004466473
0000d0 c2 cf 6a bd a6 d7 44 3e eb da 2f 3e af 61 9a bd
       -0.05732704 0.19222888 0.17173354 -0.07538163
0000e0 60 c7 91 3d 0b b3 d0 3d 98 61 75 3d cf d3 3d bd
       0.07118106 0.101904 0.059907526 -0.046344575
0000f0 00 cd 08 bd 9a 33 4e bd d5 cc cc bd 4d fa 14 3e
       -0.03339863 -0.05034218 -0.10000006 0.14548607
000100 42 61 75 3e 90 b9 27 bd db f2 7d bd a9 1f 38 3d
       0.23962882 -0.04094845 -0.061999183 0.04495207
000110 86 cd d2 3d de cf 73 be bc 12 2d bc fc 38 8b 3e
       0.10293107 -0.23809764 -0.010563549 0.27191913
000120 27 62 fe 3d 48 aa 77 3d 68 f1 6b 3d 77 62 9d 3e
       0.12421065 0.060465127 0.05760327 0.30739185
000130 d8 f1 05 3f a5 48 c2 bd ce 25 aa 3d 06 58 2b be
       0.5232215 -0.09486512 0.08307992 -0.16732797
000140 07 cb 26 be 0a 69 18 3c 8e 34 4a be 96 89 73 3e
       -0.16288386 0.009302387 -0.1974661 0.23782954
000150 9e 43 d6 bd d9 cc 17 3e d8 b1 28 3e 5b 66 e2 3c
       -0.10462116 0.14824237 0.16474092 0.027636698
000160 8b 8b 49 3e a9 c8 03 3e a4 3c c3 3e e5 60 b5 3c
       0.19682138 0.12869515 0.38132203 0.02214093
000170 b2 0f ea 3d 8e 34 55 3d 1e 4f 2a bd e1 1a 87 bc
       0.11428775 0.052052073 -0.04157936 -0.016492309
000180 a3 70 a9 3d bd 50 b6 3d d3 fd f9 3d 5e 91 4e be
       0.08273437 0.08902118 0.12206616 -0.2017264
000190 7b 81 e0 3d 4c 8e 37 3e ac ae 96 3c a1 4c db 3d
       0.109621964 0.17925376 0.018393837 0.10707975
0001a0 bf ce 24 bc 8e f7 71 3d 04 47 28 be d3 1a f3 3d
       -0.010059058 0.059073977 -0.1643334 0.11870351
0001b0 74 07 b4 bc 00 ed 9a be 59 35 d2 bd 3a bc 8f be
       -0.02197621 -0.30258942 -0.102640815 -0.28073293
0001c0 db 9e 15 bd 7f bf a6 3c 6d 5d 6f be df 3a 20 bd
       -0.03652845 0.020354984 -0.23375483 -0.039118644
0001d0 27 36 e6 3c fe 85 c2 3e f8 4e 89 be c6 7b 94 bd
       0.028101994 0.37992853 -0.2681806 -0.072501704
0001e0 a9 55 d4 3c c4 b8 dd bd a7 f5 86 3d 1e db 52 3e
       0.025919752 -0.10826257 0.06589823 0.20591399
0001f0 b5 74 1d 3d 1a eb 01 3e 5a 52 86 bd 32 21 10 bd
       0.03844138 0.1268734 -0.06558676 -0.035187908
000200 25 e3 03 bd 2c ca f4 bd a5 e7 bc 3d bd a3 d9 bc
       -0.032199044 -0.11952624 0.0922387 -0.026567334
000210 ab 2e 49 3d fe 27 dd 3b 7d 26 13 3e f6 75 96 ba
       0.04911677 0.006749152 0.14370151 -0.0011479247
000220 d2 a0 44 3d be fd e6 bc 48 ea 6b 3e cf f3 e2 3d
       0.048004933 -0.028197166 0.2303859 0.11081659
000230 ea e4 32 3e 51 46 79 bd 61 71 61 3d df 95 07 bc
       0.17470136 -0.060858075 0.055039767 -0.008275478
000240 fa 57 a0 3d a3 26 34 3e 0d ab 18 be de 04 08 bd
       0.0782928 0.17592864 -0.14909 -0.033207767
000250 77 95 84 3c 89 c4 8b 3d a2 8a dc 3d 56 61 18 3e
       0.016184552 0.068245955 0.107686296 0.1488088
000260 a5 c0 f7 3c e7 5a 3e 3e 9d 15 fa bd 03 95 da bd
       0.030243227 0.18589364 -0.12211154 -0.10672953
000270 35 8a 75 be 83 de 93 bc 8f a1 20 be 06 cb 36 3c
       -0.23978503 -0.018050438 -0.1568663 0.011156803
000280 68 41 74 b8 50 ce 68 bb 89 10 04 bc f1 43 89 bc
       -5.8235048e-05 -0.0035523362 -0.008060583 -0.01675603
000290 72 94 64 3b 41 97 ab bb 24 6c 20 bb 52 f0 88 bc
       0.003487852 -0.0052365367 -0.002447852 -0.016716156
0002a0 03 74 70 3c c8 83 4f 3c 62 fb 52 bc 88 f2 ac bc
       0.014676097 0.012665696 -0.012877317 -0.021111742
0002b0 38 29 30 3d 9d 54 5b bc 6e 50 06 bc b5 0d 92 bb
       0.04300806 -0.013386873 -0.008197887 -0.0044572004
0002c0 f8 85 b0 3c 60 99 45 3a 9a 1a 3f bd 26 02 b6 bb
       0.021548256 0.0007537808 -0.04665623 -0.0055544553
0002d0 2a e6 37 3d 3b dc b3 bc b4 ac c2 3c b5 e2 8b bc
       0.044897236 -0.0219556 0.023763992 -0.017075876
0002e0 fa 46 ed 3c 4f f2 ee 3b ff 58 19 3d c0 f9 89 bb
       0.028964508 0.007292069 0.03743839 -0.0042106807
0002f0 b7 1a 06 bd 2a ff 8c bc 01 ea 07 3b 20 09 08 3c
       -0.03274032 -0.017211515 0.0020738842 0.008302957
000300 92 ee 4a 3e fb 57 2d 3d 8e e7 4a 3e 0a 56 19 3e
       0.1981757 0.042320233 0.19814894 0.14974228
000310 ff 62 54 be 30 b9 be bb 27 5e ef 3b c2 b2 16 3e
       -0.20740889 -0.005820416 0.007304925 0.14716628
000320 f6 93 bc be a6 18 0b 3c 94 e2 b1 be 2f 71 85 bd
       -0.36831635 0.008489763 -0.34743178 -0.06515729
000330 80 74 23 3e 66 fa 55 bd 44 2d 7f 3c 07 ad 1e 3e
       0.1596241 -0.05224075 0.015574757 0.15495692
000340 e4 7e 0d be a6 9d 2a be 8f d3 a6 be fc 08 8b 3e
       -0.13817936 -0.166617 -0.3258328 0.27155292
000350 bb 35 b0 3d 39 98 bf 3d ba bb 64 bd ce 24 1b be
       0.08603998 0.09355206 -0.055843093 -0.15150759
000360 fb 6f 87 3d 2f 5c 1b bc f4 92 24 3e 0e 2c 22 3d
       0.066131555 -0.0094824275 0.16071683 0.039592795
000370 5f 46 99 3c a4 be 86 bd 1e 15 a6 3c 4c ff 3d be
       0.018710313 -0.065793306 0.020273741 -0.1855442
000380 de 6b 53 3e e9 2b 89 be 12 e9 57 be 41 82 26 3c
       0.20646617 -0.26791313 -0.21085003 0.010162891
000390 13 be 77 bd 06 a3 3c 3d b4 44 cf 3d a5 ac 05 bd
       -0.060484003 0.04605391 0.10120526 -0.03263535
0003a0 13 c0 96 3e a6 f8 fc 3c 7c db 99 3e 62 f7 1c bd
       0.29443416 0.030880284 0.30050266 -0.03832186
0003b0 da 37 ce 3c d2 81 d2 bd 29 24 34 3e ba f2 f0 3c
       0.025173116 -0.102786675 0.17591919 0.029412616
0003c0 b9 8c 11 3e 22 9b 16 be 78 b3 e3 bc f6 5b 4d 3e
       0.14213838 -0.14707616 -0.027795538 0.20054612
0003d0 cd 9e 12 bd c0 42 2f 3e 1a d6 5f bd 00 f9 88 3d
       -0.035795975 0.17115307 -0.054647543 0.06688118
0003e0 c6 60 a6 3c 3b 16 57 3c 5b 3c 86 3c 93 d9 eb bd
       0.020309817 0.013127859 0.016386202 -0.11516108
0003f0 16 fb 54 bc e7 9a e9 bd ec 13 b6 bc 92 9f d9 be
       -0.012999317 -0.114064984 -0.022226296 -0.42504555

context_transformer_0/ffn_layer_2/intermediate_dense/einsum/Einsum;context_transformer_0/ffn_layer_2/intermediate_dense/Relu;context_transformer_0/ffn_layer_2/intermediate_dense/add f4 [32]
000000 50 ad ee bd 5b c2 90 be 3a 68 ab bd b3 03 4b be
       -0.116541505 -0.2827328 -0.08369489 -0.1982563
000010 77 30 0b 3e 4e ce 3a be bd 5f 13 be 9b 02 1b bf
       0.13592707 -0.18242761 -0.1439199 -0.6055085
000020 ed ad f2 be 9f 02 93 be 93 4c aa 3c 76 0c 81 3e
       -0.4739832 -0.28712937 0.020788467 0.2520482
000030 44 1f dc bd 2d ee ef bd 65 ad 05 3d 7b ce bf 3c
       -0.10748151 -0.1171535 0.032636065 0.023413887
000040 4d 77 97 be c8 61 29 bd ce 07 f6 bc c8 f0 30 be
       -0.29583207 -0.041353017 -0.030033018 -0.17279351
000050 ed 16 ae bc 21 40 49 be 84 8a 85 3e 26 f2 23 3d
       -0.021251166 -0.1965337 0.26082242 0.040025853
000060 fd 1b 1f be 15 de 24 3d 33 e0 24 be fd e5 64 be
       -0.1553802 0.040250856 -0.1610115 -0.22353359
000070 6b 99 02 be b5 a4 3f 3e 78 e3 29 3d 87 39 c0 3d
       -0.12753837 0.18715174 0.041476697 0.093859725
